benchmarks/marabou-cifar10/nets/cifar10_medium.onnx (onnx, 664930 bytes, 10 tensors)

sequential_1/dense_5/MatMul/ReadVariableOp:0 f4 [64, 10]
000000 61 d3 e9 bd 86 fa 84 3e 73 7d 7e be a7 8e 38 be
       -0.114172705 0.25972384 -0.24852543 -0.18023168
000010 f9 b8 ea 3c 18 8f 91 3e 28 13 6e 3d 45 8d 96 3e
       0.028652655 0.28429484 0.058123738 0.29404655
000020 7d c5 b7 be c9 44 93 3e 8a cd 8b bd 85 2a 59 be
       -0.3589286 0.28763416 -0.06826313 -0.21207626
000030 37 9b 2f bd ec 8d 2a 3e 25 52 03 3d 17 a5 a6 be
       -0.042872634 0.16655701 0.03206076 -0.3254783
000040 bf c6 df 3e 7f 18 06 bf be 9e 54 3d 31 3d 66 3e
       0.4370632 -0.5238113 0.0519092 0.2248428
000050 be 82 71 be 23 74 b3 3d 8f 9f 5e be 83 42 a1 3e
       -0.2358503 0.08762386 -0.21740554 0.31496057
000060 b9 36 c9 be 00 48 23 3e c7 d5 fa be 87 5f 96 bd
       -0.39299563 0.15945435 -0.48991224 -0.07342439
000070 00 58 22 3e a4 88 8d 3e 22 38 89 bc d5 42 b0 3e
       0.15853882 0.2764331 -0.016750399 0.3442599
000080 7c 19 82 be 0e af ec 3d de c6 82 be d9 1f 8d be
       -0.25410068 0.115568265 -0.2554235 -0.2756336
000090 61 2f 86 be 7c 3f 0f 3f e1 80 10 bf d6 40 e7 3e
       -0.26208022 0.55956244 -0.56446654 0.45166653
0000a0 89 c7 df 3e b3 d0 2b 3d 55 2a 1a be 6c a0 c3 3d
       0.4370692 0.041947078 -0.15055211 0.095520824
0000b0 fd f6 a7 bd b4 24 06 be a3 c0 6e be 73 35 13 3e
       -0.08201406 -0.13099939 -0.23315673 0.14375858
0000c0 c2 c9 10 be 6a e4 9d be 1b 0c a9 be 65 28 37 be
       -0.14139464 -0.3083833 -0.33017048 -0.17886503
0000d0 a9 04 74 bd da b5 2e be ab 8f 81 bd 6a 56 87 3e
       -0.059574757 -0.17061558 -0.063262306 0.26433116
0000e0 bf ab b1 3e f2 37 66 3c 12 98 b4 3d 83 72 d0 3d
       0.34701344 0.014051424 0.088180676 0.101780914
0000f0 7a b5 d7 3e e5 df 98 3e 0d d1 c6 bd a8 26 5f be
       0.42130643 0.29858318 -0.09707842 -0.2179209
000100 d5 5e 61 be 93 d1 9e be 1e 63 cc be 80 ac d8 be
       -0.22008832 -0.31019267 -0.3991937 -0.42319107
000110 0b 94 b7 3e 68 c6 77 3e 10 da db bd 85 03 00 bf
       0.35855135 0.2419678 -0.107349515 -0.5000537
000120 a0 00 88 3e 53 70 70 be af 9e 82 bc 01 06 78 be
       0.26562977 -0.23480348 -0.015944807 -0.2422104
000130 87 e2 88 be 56 90 12 3e d3 66 f5 3d 72 8e e0 3c
       -0.26735327 0.14312872 0.11982503 0.027411673
000140 3f bd 6d bd e5 4e 55 bf 11 9c cb be 04 0f 18 3d
       -0.058041807 -0.8332351 -0.39767507 0.037123695
000150 8f 8f 37 3e 11 3e 7e 3d 98 c5 3e 3e 05 60 72 3e
       0.17925857 0.06207091 0.18630064 0.23669441
000160 55 e9 49 3e cd c7 f4 3e 2d e2 59 be a6 50 34 3e
       0.19717915 0.47808686 -0.21277685 0.1760889
000170 18 72 b8 bd a1 98 9e bc 6a c9 13 3e f8 ca 22 3e
       -0.09006137 -0.019359889 0.14432302 0.15897739
000180 2a e0 72 be 1c 99 4c 3d d1 fc 01 bf 8f cb 36 be
       -0.23718324 0.049950704 -0.5077639 -0.17851089
000190 fe 98 b9 bd 50 00 51 be 3a c1 7e be 10 3d bb 3d
       -0.09062384 -0.20410275 -0.24878398 0.09142506
0001a0 4d 51 22 be 69 c3 07 3e 14 b5 af be 3c a6 66 3e
       -0.15851326 0.13258137 -0.3431784 0.22524351
0001b0 f6 bb 64 be 62 82 a1 3e 53 b3 cc 3c 7c 11 a1 3e
       -0.22337326 0.31544787 0.024987852 0.31458652
0001c0 02 70 8a be 52 90 73 be 2a 4c bf be e3 6e bb be
       -0.2703858 -0.23785523 -0.37362796 -0.36608037
0001d0 4e 49 26 3e 0b e6 c7 be f3 d0 a7 be 6f a0 a5 3c
       0.16238901 -0.39042696 -0.32776603 0.020218102
0001e0 c4 cb f8 be 42 5d b4 be 0d 3b 6d 3d 2f df 0f bd
       -0.4859296 -0.352274 0.057917643 -0.035124954
0001f0 71 ff 8b 3e 30 0d b5 3e 09 69 b3 bd 24 2b a4 3e
       0.27343324 0.35361624 -0.08760268 0.32064164
000200 59 a1 f9 bd 23 82 e2 be 4b 23 7b 3e 6d be 9b 3e
       -0.12188978 -0.4423991 0.24525182 0.3041872
000210 25 78 a7 bd 94 d7 70 bd aa 51 5c be 8b 5d 43 bd
       -0.081772126 -0.05879934 -0.21515527 -0.04769663
000220 fd 26 b5 3e 11 42 02 be 7c 4d 89 3e 58 1d 86 be
       0.35381308 -0.12720515 0.26816928 -0.26194263
000230 6a bf 14 bf 10 52 55 3e 46 02 7e bd 01 a5 5b 3e
       -0.58104575 0.20832086 -0.062013887 0.21449663
000240 ff 71 a1 bc 4a b3 b9 3e cc af 4d be cc c9 99 3d
       -0.019707678 0.362696 -0.20086592 0.07509193
000250 13 7a a3 3e 04 ec 45 3d a6 55 b0 3d bc 52 9e be
       0.31929073 0.048320785 0.08610086 -0.30922496
000260 73 a0 82 3e 7e bb 31 3e b7 a2 39 3e 17 ba 84 3e
       0.25513038 0.17356679 0.18128477 0.25923225
000270 bc de 4d bd 8f 2c 5b be c2 f5 f5 3c 91 db bd be
       -0.050261244 -0.21403717 0.030024413 -0.37081578
000280 ae 64 6c 3e f6 db ba 3e 02 62 5c be eb 0e ae bd
       0.23085281 0.36495942 -0.21521762 -0.08498939
000290 01 0b 9f 3e 0a ec 8f 3c a2 3a 71 bc 8b b0 47 bd
       0.31063083 0.017568607 -0.014723452 -0.04875235
0002a0 bf 22 84 be ac 16 42 3e 9d 89 a9 be 06 73 34 bf
       -0.2580776 0.18953961 -0.33112803 -0.7048801
0002b0 d8 bc 31 3e 5d 18 82 be 6a 34 81 3e 64 df 51 3d
       0.17357194 -0.25409213 0.252353 0.051238433
0002c0 8a 53 8c 3e 6a 2f 13 bf 7a ae 81 be ec 7d ac be
       0.27407485 -0.57494223 -0.25328428 -0.3368982
0002d0 10 03 85 bd 77 0b 71 3e 2d 03 91 3e f8 77 c9 3d
       -0.06494725 0.2353953 0.28322735 0.09837335
0002e0 a7 31 f9 be ba e5 a4 bc 6c cd 87 3d 10 e8 cb bd
       -0.48670694 -0.020129073 0.06630978 -0.09956372
0002f0 44 78 c1 3e 77 77 94 be f1 74 c9 bc db 5f a8 3e
       0.37787068 -0.28997394 -0.024591895 0.32885632
000300 c1 d3 42 be ea 06 0c be a2 fd 4b be e6 3f 70 be
       -0.1902609 -0.13674513 -0.19920972 -0.23461875
000310 78 41 c8 be 0d 1b 3d be 80 8b 92 3e c5 4d 87 3e
       -0.3911245 -0.1846735 0.28622055 0.2642652
000320 fa a4 82 3e 5f 71 81 bd 25 9f c1 3c 45 82 cd bd
       0.25516492 -0.06320452 0.023635456 -0.100346126
000330 c0 d3 e8 3d b3 af 3e be 63 64 a7 be 5f 0c 39 3e
       0.11368513 -0.18621711 -0.32693776 0.18071125
000340 ca d1 86 be 56 a1 9f 3e ff f4 4c 3e a5 65 63 3e
       -0.2633193 0.31177777 0.20015334 0.22206743
000350 8b 17 44 3e f1 64 98 3c a9 6d 8c 3e 5d 40 31 3e
       0.19149606 0.01860282 0.27427414 0.17309709
000360 61 44 f7 be 2f ba 10 3e 68 e0 71 3d a9 1b b0 3d
       -0.48294356 0.14133523 0.0590519 0.08599026
000370 f7 8f 08 3e b4 1c 9b 3e 31 55 07 bf 0b 42 32 bd
       0.13336168 0.30295336 -0.52864367 -0.043520015
000380 47 d8 f0 be d9 c1 97 be 26 21 c0 bd 50 50 f9 be
       -0.47040007 -0.29640082 -0.093813226 -0.48694086
000390 45 c2 be 3e e6 3b 0f 3e 69 1e c5 3e 3f 76 b7 be
       0.3725759 0.13987693 0.38499764 -0.35832402
0003a0 2d 43 46 be db 4e 9b bd 4b e8 8e 3c bd 7e 30 3e
       -0.19361563 -0.075834 0.01744475 0.17235847
0003b0 4d ac a7 bc 16 fa 53 3e c2 2f 49 be 9f e0 b7 bb
       -0.020467902 0.20700869 -0.19647124 -0.0056114937
0003c0 8a 24 e3 3e 13 dc 8e be 32 8f 18 bd 5b 87 5f be
       0.44363815 -0.27902278 -0.037245937 -0.21828978
0003d0 4c f1 a6 be 6f 93 96 bd ee ec f4 3d ca 3c a8 3e
       -0.3260597 -0.073523395 0.11959253 0.32858878
0003e0 e8 21 2b be 00 eb e0 bd 73 29 d2 3e 6f 38 0a 3e
       -0.16712153 -0.10982323 0.41047248 0.1349809
0003f0 38 64 96 bd a8 bd ca be 5a 43 bf 3d 3f 93 d3 be
       -0.07343334 -0.3959782 0.09339018 -0.41323277

sequential_1/dense_5/BiasAdd/ReadVariableOp:0 f4 [10]
000000 b7 2f ab bd 54 3f f2 bd 70 ad 95 bd 68 f9 19 3e
       -0.0835871 -0.11828485 -0.07308471 0.15036547
000010 f4 b7 ae 3d 65 df cd bd a2 db 90 3d b6 17 38 bd
       0.0853118 -0.10052375 0.07073142 -0.044944488
000020 96 56 a6 3c 73 37 4e 3d
       0.02030496 0.05034585

sequential_1/dense_4/MatMul/ReadVariableOp:0 f4 [128, 64]
000000 7a a1 35 be 1c 69 b6 3d 9a 57 34 be 37 1f bb bd
       -0.1773738 0.08906767 -0.17611542 -0.09136813
000010 66 94 50 bd 4a 44 7b be a8 4a 53 3a 55 03 01 3d
       -0.050922774 -0.24537769 0.0008060136 0.03149732
000020 43 99 14 3d 98 5c 1f 3e 85 1a 1e be ed 99 21 3e
       0.036278974 0.15562665 -0.15439804 0.15781374
000030 4b 66 b4 be ac 63 a9 3d 45 be f5 be 77 4f 8c 3c
       -0.35234293 0.08270964 -0.47996727 0.017127736
000040 ff 08 9d bd 63 e1 99 3d 86 93 13 3d 3d c1 d9 3c
       -0.076677315 0.07513692 0.03602936 0.026581401
000050 0b 4d 13 3e 1c 67 88 3d d9 73 16 3e e9 b7 51 bc
       0.14384858 0.066602916 0.1469263 -0.012800195
000060 f6 04 00 be c7 af 02 be be dd 94 3d 5b 01 36 3d
       -0.12501892 -0.12762366 0.072688565 0.044434886
000070 78 b8 af 3d 36 48 7e 3d 79 61 8d 3c dc 25 08 bd
       0.085801065 0.062080584 0.017258393 -0.03323923
000080 f2 e1 a8 bc f6 9f 00 be 72 15 b1 3e 46 8c af be
       -0.020615552 -0.1256102 0.34586674 -0.34286708
000090 ce fa ee bd 63 02 4e be a8 83 8b 3e 17 de 53 3e
       -0.11668931 -0.20118098 0.27248883 0.2069019
0000a0 5b 3a 12 bd de 53 43 be dd 24 02 3e 89 b8 2e 3e
       -0.035700183 -0.19074962 0.12709375 0.17062582
0000b0 b8 c2 b6 be 8f d9 31 bc af 84 25 3d 67 2a 73 be
       -0.35695434 -0.010855093 0.04040974 -0.23746644
0000c0 81 00 a0 3d f3 36 61 bd 2c 22 f4 3d 24 10 16 bd
       0.07812596 -0.054984044 0.1192058 -0.036636487
0000d0 ab ef d2 bd 9b f4 b8 3d 82 a1 60 bc 6b 19 67 be
       -0.10299619 0.0903103 -0.013710381 -0.2256829
0000e0 7a 00 d1 3c 93 a9 21 3c 2e 44 13 3e a1 a5 4f be
       0.025512923 0.00986709 0.14381477 -0.20278026
0000f0 78 96 08 bd db fe ef bc 7c b2 be bc 10 44 65 bd
       -0.033346623 -0.02929633 -0.023278467 -0.055973113
000100 5d 1b e9 be 10 5f 04 3e 38 10 db be 03 d5 07 bf
       -0.4552869 0.12926888 -0.4278581 -0.53059405
000110 30 38 7c bd 7c 5b 4d bd 3d ff d6 bd 2f 01 e0 3c
       -0.061577022 -0.050136074 -0.104979016 0.027344314
000120 73 8f 40 bd aa f4 06 be d7 02 62 be e7 b6 fc 3d
       -0.047011804 -0.1317927 -0.22071396 0.12339573
000130 8a 96 22 bc ee 78 63 3d 3e 8a c9 be fe d8 38 3e
       -0.009923587 0.05553525 -0.39363283 0.18051526
000140 ea 48 be 3d 36 96 e8 bd 24 d0 a7 3b c5 c9 d0 bd
       0.09291251 -0.113567755 0.005121248 -0.101947345
000150 1f 3f 22 bd bb 8b 40 bd f2 85 c7 3d f4 61 cf 3d
       -0.03961098 -0.047008257 0.09742345 0.10126105
000160 81 f8 fc bd 22 6e d2 3c da 5e 7c be ba 30 f4 3e
       -0.12352086 0.025687281 -0.24645558 0.47693425
000170 c7 0c 00 be 60 f3 66 bc 33 5b 8f bd c9 dd e0 bd
       -0.12504874 -0.014096111 -0.06999817 -0.10979802
000180 d9 15 7a be 2c 3e 95 3d b8 bd af 3c f8 e4 84 bc
       -0.24422397 0.07287249 0.02145277 -0.016222462
000190 c7 7e cb 3d 7c e0 e5 3b 05 2e ad bd 5a bc 87 3e
       0.0993629 0.007015286 -0.08456043 0.26510888
0001a0 d3 7d 2c be e1 fe 4b be c7 1e 21 3e 79 6e 50 3e
       -0.16844873 -0.19921447 0.15734397 0.20354642
0001b0 d6 72 a2 3d e5 b5 a1 3d ac 1e de bd 52 ee a6 be
       0.079320595 0.07896022 -0.10845694 -0.326037
0001c0 ab 7e a3 be 73 5a d6 3d 58 73 73 3e 83 8c 5a 3e
       -0.31932577 0.104664706 0.23774469 0.21342663
0001d0 8e 5d bb 3d 1a 48 35 3e dd e1 c2 3d e1 c8 1c bd
       0.091487035 0.17703286 0.09515736 -0.03827751
0001e0 cb 66 70 3e d0 82 8b 3d bf d3 21 be 90 71 ac be
       0.23476712 0.0681206 -0.15803431 -0.3368039
0001f0 b5 b4 13 be 88 e8 0f 3e 15 de 3a be a3 4b 12 3e
       -0.14424403 0.14053547 -0.1824878 0.14286666
000200 52 bd b9 3d ef b9 86 bc 24 a7 24 3e 66 50 64 bd
       0.09069313 -0.016446082 0.16079384 -0.055740736
000210 be 73 2c be a3 a3 84 3e 27 09 94 be c4 e4 1d 3e
       -0.16841027 0.25906095 -0.28913233 0.15419298
000220 a3 67 cc bc a1 20 e4 bd 00 3e 9e bc 96 ab e4 bd
       -0.024951762 -0.11139036 -0.019316673 -0.1116554
000230 ad 04 2c 3e c2 cd d7 bd e8 c3 20 be 94 53 9d 38
       0.16798659 -0.10537292 -0.15699732 7.501911e-05
000240 4e 68 98 be d9 d4 a2 3c d3 eb cb 3d c4 e5 93 3a
       -0.29767078 0.019876884 0.09957089 0.0011283685
000250 e1 6f 34 be a8 28 a6 bd ac 49 14 bf ff e6 e5 bc
       -0.17620803 -0.08113223 -0.57924914 -0.02806425
000260 d6 10 ae 3d d2 09 85 be 4b 67 06 3e 66 d7 82 3d
       0.08499305 -0.25984055 0.1312534 0.0638874
000270 35 c2 63 bd 75 9e 1a 3d 0b 2a df bc dc ce 15 bc
       -0.055605132 0.037748773 -0.027241727 -0.009143557
000280 cb f3 e4 3d 02 43 6a 3e ba 16 e9 bc 6d bd 43 3d
       0.11179312 0.22877124 -0.02845322 0.047788072
000290 08 60 74 3c d7 3c 87 3e 79 a5 9d 3d aa 58 e4 3d
       0.014915474 0.26413605 0.07697577 0.11149724
0002a0 a1 93 25 be 59 02 3c 3d 78 e1 7a 3d f1 b4 d7 3b
       -0.16169597 0.045900676 0.06125018 0.006582849
0002b0 63 3d 35 be 0d 6c 89 bd 8a c6 11 bc 96 eb 9d 3d
       -0.17699198 -0.06710062 -0.008897433 0.0771095
0002c0 da 51 5b be ec ee 24 bd b2 43 92 bd 01 e5 00 bd
       -0.21417943 -0.040266916 -0.07141818 -0.031468395
0002d0 d4 f2 4d 3d ef 2d 05 bf af 03 5f 3e f8 c9 48 3d
       0.050280407 -0.52023214 0.21778749 0.049020737
0002e0 30 7d 9c 3e 0c 51 a3 bd 70 3a a6 bb f3 b4 ed 3c
       0.3056426 -0.07974443 -0.0050728843 0.029016947
0002f0 34 3b 2a be 82 a6 e6 3b 9a 4c aa 3d 9b ae 49 bd
       -0.16624147 0.0070388922 0.08315392 -0.049238782
000300 d7 a6 ca bd 21 44 dc be db bb c7 bd ed 97 d0 bd
       -0.098951034 -0.43020728 -0.097526275 -0.101852275
000310 4a 6d 19 3e 9f fb 93 bd 64 be 81 3e 18 ae 41 bd
       0.14983097 -0.07225727 0.2534057 -0.04728517
000320 9b a8 1e bf c0 da 84 3c 8e b0 04 be b6 18 fc 3d
       -0.6197602 0.01621759 -0.12957975 0.12309401
000330 60 77 59 be da a6 9e be e9 44 5d 3e 0a 51 a1 bd
       -0.21236944 -0.30986673 0.21608318 -0.07876785
000340 67 c2 3d 3d 13 e2 86 be f0 10 7c 3e 23 85 8c 3e
       0.046327975 -0.26344356 0.24615836 0.27445325
000350 ae 88 03 be 32 7e 3b 3e e4 c9 1a be f5 08 91 3d
       -0.12845108 0.18309858 -0.15116078 0.070817865
000360 b3 af 3c bd 1f eb 40 3d 98 f8 27 3a 43 14 ec be
       -0.046065997 0.04709923 0.0006407588 -0.46109208
000370 fb f2 cf 3d 81 c3 18 be ee 5d ed 3d 35 06 25 bd
       0.10153767 -0.14918329 0.11590181 -0.040289123
000380 b6 29 46 be d4 74 81 be 7a 80 dd 3d c5 33 8a 3d
       -0.19351849 -0.25284445 0.108155206 0.067481555
000390 73 64 21 bf 75 f6 90 be ab cf f4 bb 59 3e c9 bd
       -0.630439 -0.28313032 -0.007471045 -0.09826345
0003a0 11 f1 57 3e 32 4b ba bd 34 b9 f0 bd fd a6 ae bd
       0.21088053 -0.090963736 -0.11754075 -0.08527944
0003b0 fc fb ba 3e 70 f8 bf 3d 37 f8 f6 3d 80 2c 0b bd
       0.36520374 0.093735576 0.12059062 -0.033977985
0003c0 15 47 67 3c 5f 99 12 3e bd f2 b0 bc 23 5f 54 be
       0.014116068 0.14316319 -0.021600122 -0.20739417
0003d0 25 43 17 3e a9 ca f5 3c 10 1b de be 43 99 93 3d
       0.14771707 0.030003862 -0.43380022 0.07206967
0003e0 09 f3 97 3d 8f e2 1d bd 62 14 16 be 15 39 62 3e
       0.07419402 -0.03854614 -0.14656213 0.22092088
0003f0 80 27 ec b9 30 a0 92 3c 97 81 05 bd 0f 53 5b 3e
       -0.00045042858 0.017898649 -0.03259429 0.21418403

sequential_1/dense_4/BiasAdd/ReadVariableOp:0 f4 [64]
000000 11 63 87 3e 0c 9c 07 3f 7e e2 db 3e 1c c7 10 3f
       0.2644277 0.52972484 0.42946237 0.56553817
000010 88 08 31 3e 8b 20 a2 3e 19 1b ee 3e 9c 8b 9d 3e
       0.1728841 0.31665453 0.4650505 0.30770576
000020 eb 08 14 3f 2c 99 a5 3e ee 4b 9c 3e de 0b a5 3e
       0.5782611 0.32343423 0.3052668 0.32235616
000030 a3 c5 c6 3e 8f 34 a6 3e fd 14 b1 3e 15 72 b1 3e
       0.3882266 0.32461974 0.34586325 0.3465735
000040 06 af 46 3e d9 68 14 3f 72 28 c5 3e a5 4e 9b 3e
       0.19402704 0.57972485 0.3850742 0.3033344
000050 2d fa 94 3e 92 ef 79 3e 62 52 d3 3e 73 3a 83 3e
       0.2909712 0.24407795 0.4127379 0.2563053
000060 ce b1 22 3e 86 80 b3 3e 6a e5 bb 3e 71 63 e9 3e
       0.1588814 0.35058993 0.36698467 0.4558368
000070 42 90 01 3e 20 58 0c 3f a4 a2 ed 3e e1 dd cc 3e
       0.12652686 0.5482197 0.46413147 0.4001303
000080 d1 0f e4 3e b0 6b 06 3f 94 ca 86 3e cd 34 b5 3e
       0.44543317 0.5250807 0.2632643 0.35391846
000090 6f be e9 3e 36 61 2a 3e 2c f3 d3 3e 38 f9 d0 3e
       0.45653102 0.16638646 0.41396463 0.4081514
0000a0 2e d7 e2 3e 13 d6 cb 3e a4 a2 a6 3e c4 f1 2a 3e
       0.44304794 0.39811763 0.3254596 0.16693789
0000b0 29 81 37 3e 35 ba e5 3e b8 68 82 3e df 4a 1f 3f
       0.17920364 0.44868627 0.2547052 0.6222362
0000c0 1e 84 88 3e e5 94 e9 3e 06 73 98 3e 97 04 c2 3e
       0.26663297 0.4562141 0.29775256 0.37894127
0000d0 aa b1 f4 3e c3 e1 eb 3e c0 20 c1 3e c8 5c 70 3e
       0.47791797 0.4607068 0.377203 0.23472893
0000e0 cc 2b 97 3e 83 a2 03 3f 78 63 90 3e e7 e9 92 3e
       0.29525602 0.5141985 0.2820089 0.28694078
0000f0 5c b9 bb 3e bc e2 9d bc d1 7f 90 3e 82 e4 07 3f
       0.36664855 -0.019273154 0.28222516 0.5308305

sequential_1/dense_3/MatMul/ReadVariableOp:0 f4 [1152, 128]
000000 96 60 00 3d bb 2c 3f bd d3 af fe bc 92 d3 dd 3d
       0.03134211 -0.046673518 -0.031089699 0.108313695
000010 51 f6 24 3e e4 bc 1d be d1 6f 85 3d eb f9 0c bd
       0.16109587 -0.15404087 0.06515468 -0.034418028
000020 2e 1b e7 bd d7 fd ca 3b e2 2e ac 3d d1 05 b5 be
       -0.11284481 0.006194811 0.0840738 -0.35356
000030 a4 8a e0 bd 08 a1 89 bc 95 f0 60 3b 84 fd 14 3d
       -0.109639436 -0.016800418 0.0034323086 0.036374584
000040 ef 99 00 be 69 5c b8 bb 06 b4 29 bd 14 d9 1d 3e
       -0.12558721 -0.0056262505 -0.04143145 0.1541484
000050 5b 49 e5 bc c9 42 87 3d 6c 31 a2 be d9 dd 88 be
       -0.02798908 0.06604535 -0.3167833 -0.26731756
000060 15 ca 9e 3d 73 c3 e7 3d 6e 08 65 bd 67 2e c1 bd
       0.07753388 0.11316576 -0.055916242 -0.09432679
000070 bb 08 8f 3d 9c ab 03 bc 85 e9 ea 3c 07 68 7a 3e
       0.06984087 -0.00803652 0.028675804 0.24453746
000080 c3 f1 76 bd c6 02 ec 3b 32 31 28 bc 08 72 cf 3d
       -0.060289156 0.007202479 -0.010265635 0.101291716
000090 e0 14 76 bd fd 64 d6 bb fe 7d 80 3d 0f 2e ce bc
       -0.0600785 -0.0065428005 0.06274031 -0.025168447
0000a0 e4 63 1f 3e 81 39 c7 3c 9f 4a 4f 3d aa 39 69 3d
       0.15565449 0.024319412 0.050608274 0.05693976
0000b0 cc 5d 46 bd 3b ca ea 3d 6c 25 28 3c 09 f4 56 3a
       -0.048429295 0.11464354 0.010262828 0.0008199816
0000c0 3d 8a 26 3e 02 aa c0 3c 38 7b 11 3e 9f 70 80 3a
       0.16263671 0.023518566 0.1420716 0.0009799189
0000d0 5b 37 04 be 26 14 41 3d b3 cc 75 bd 5f 4f a3 3d
       -0.12911741 0.047138356 -0.06000967 0.07974123
0000e0 8c bd 04 bd 82 b0 de 3d 31 94 b6 3d f0 57 fa bb
       -0.03240733 0.1087351 0.08914984 -0.0076398775
0000f0 0a 08 2f 3e a0 bb b7 3c 77 ba 10 3e ee 29 49 3d
       0.1709291 0.022428334 0.1413363 0.049112253
000100 49 96 23 3e c9 8e ae 3d ec 68 28 bd fb 23 76 3c
       0.15975298 0.08523328 -0.041115686 0.015023227
000110 7f 51 01 be 34 51 23 bd 7f a0 61 3e 39 08 b4 bd
       -0.12628745 -0.039872363 0.2203388 -0.08790631
000120 e1 7a 1f bd 0e 55 b0 3d 7d 06 89 bc ce ed b5 3c
       -0.038935546 0.08609973 -0.016726727 0.02220812
000130 b8 00 41 bd e3 2b 37 3e bd 4c 2d bd 95 90 80 bc
       -0.047119826 0.17887835 -0.04230951 -0.015693942
000140 f2 80 8f b9 2c 82 dd 3d 94 23 c6 3d 2f b2 78 3b
       -0.00027371157 0.10815844 0.09674755 0.0037948003
000150 82 33 0d be 5d cc 29 be e2 73 ab ba 5d d7 82 3d
       -0.1378918 -0.16581865 -0.00130808 0.063887335
000160 8c f4 4d bd c3 d8 54 bd 51 0b 67 be e9 59 bd 3c
       -0.050282046 -0.051964533 -0.2256291 0.023114162
000170 c4 29 84 bb 4c 44 48 bc 88 ea 80 bd 52 56 de bb
       -0.004033299 -0.0122233145 -0.06294733 -0.0067851925
000180 2a 61 8a be 80 87 49 3d 4b 7f 01 3d aa 06 76 bc
       -0.27027255 0.04920149 0.031615537 -0.015016237
000190 d1 13 b5 bd 20 0d 2b 3e 8a 62 08 3e 10 94 6f be
       -0.0884167 0.16704226 0.1331884 -0.23396325
0001a0 30 f1 42 3d a9 a2 ca 3b 4b 49 a6 3d 17 d8 09 3e
       0.047593296 0.0061839414 0.08119448 0.13461338
0001b0 89 84 24 bd 9d 9f e0 3d 80 55 3a bd f2 cf 92 bd
       -0.040165458 0.10967944 -0.045491695 -0.07168569
0001c0 43 93 97 bd 14 95 22 bc bf 62 82 3d f9 c7 40 be
       -0.07401135 -0.009923238 0.063664906 -0.18826284
0001d0 f1 61 8b 3d 12 df 30 bd 38 49 33 bd 73 21 2f 3d
       0.0680579 -0.043181486 -0.043771 0.04275651
0001e0 a5 df 7f 3c 6c 33 c2 bd 95 99 bd be d9 c9 e0 bc
       0.015617286 -0.09482464 -0.37031236 -0.027439998
0001f0 61 98 20 3d c8 fc 91 3d 52 b0 09 3e f3 7d 29 3d
       0.03920782 0.07128292 0.13446167 0.04137988
000200 e0 f9 8a bd ab c1 ce bd 48 6c 82 3d 86 52 2a 3d
       -0.06785941 -0.10095533 0.06368309 0.041582607
000210 8d 8b 63 bd 93 70 a3 bc de c8 d7 3d d1 f8 2b 3e
       -0.055553008 -0.01995114 0.10536359 0.16794135
000220 79 a7 b5 3d 8d 07 ba 3d 22 41 3c be 79 3b f4 bd
       0.088698335 0.090834714 -0.18384221 -0.11925406
000230 bb 84 af 3d ae ef 39 bb 93 17 07 3e 10 56 15 3e
       0.08570238 -0.002837162 0.13192587 0.14583611
000240 e7 55 a8 bb a4 6d 8c bc f9 1e 90 bd 7b c7 09 bd
       -0.0051371935 -0.017142124 -0.070371576 -0.033637505
000250 3a c3 08 3d 90 5e 09 3b 5e 1b 03 3d 20 6b c4 3c
       0.033389308 0.0020960905 0.03200852 0.023976862
000260 7f 98 4e be 59 57 b1 bd 10 26 a4 bc 58 dd 1f bd
       -0.2017536 -0.08659238 -0.02003768 -0.03902945
000270 ff 9b 4e 3d f0 d1 91 3d ea 67 79 bd db 87 18 be
       0.05044174 0.071201205 -0.060890116 -0.14895575
000280 e9 d2 7e 3e 73 b5 76 3d cf 81 be 3d e2 f7 09 3e
       0.24885143 0.060231637 0.09302103 0.13473466
000290 ad 41 c0 bd c4 38 8e 3b b6 30 33 3d d0 21 cc bd
       -0.09387527 0.004340263 0.043747626 -0.09967387
0002a0 9a 48 14 bd 56 7c e6 3c 07 3a 27 3c 18 9a 6d 3d
       -0.03620205 0.02813546 0.010206706 0.058008283
0002b0 a6 b2 fb 3d e7 e6 c4 bc 79 e1 cf bc df a6 49 3e
       0.12289934 -0.024035884 -0.025376068 0.19692563
0002c0 64 07 fc bb 36 08 8a 3b 24 30 3a bd 9b 0e 9c 3d
       -0.0076913107 0.0042124046 -0.045456067 0.07619973
0002d0 61 e7 75 3d 26 37 a3 bc c5 c5 0d be 8f 55 55 3d
       0.060035113 -0.019923758 -0.13844974 0.05208355
0002e0 13 ae 9d 3b c5 3d 26 bd 23 05 f9 3b f3 ba 81 bd
       0.004812011 -0.04058625 0.0075994893 -0.06334486
0002f0 fc ff 75 bd 49 40 0e bc 37 12 e2 bb cb a3 a4 bd
       -0.06005858 -0.008682319 -0.006899144 -0.080390535
000300 20 2f 85 3d 1a 15 98 bd 5c ce ca bc b0 31 cc 3d
       0.06503129 -0.074259 -0.024756603 0.09970415
000310 05 2f 1a bc 95 80 7b 3d 12 07 a7 3d 58 ff f2 bb
       -0.009410624 0.061401922 0.081556454 -0.0074156933
000320 c2 17 4d 3d 7d dc 11 3e 28 a4 4e bd c4 9d ba be
       0.050071485 0.14244266 -0.05044952 -0.3644849
000330 a8 19 c8 3c d6 fc 0c 3d e3 a6 12 bc ba c3 a4 3c
       0.024426296 0.03442081 -0.008950922 0.020112861
000340 d3 59 b3 3d ca 93 32 3d 58 85 df 3c 74 53 0f 3c
       0.08757367 0.043597974 0.027285263 0.008747924
000350 af dd 7e 3d 5d 11 c0 3b be af e9 bd d0 86 ee bb
       0.062223133 0.005861445 -0.11410473 -0.0072792545
000360 fc 47 cc bd 9e 06 61 bd 2b da 53 be d3 ad 38 bd
       -0.099746674 -0.05493795 -0.20688693 -0.045087647
000370 c6 c2 a6 3d b7 82 3b 3d d5 76 01 3e 33 80 09 3d
       0.08142619 0.045778956 0.12642987 0.033569526
000380 5f 28 0a be 6f 0f 38 bd d1 fb 5d 3d 07 29 d8 3d
       -0.13491963 -0.044936594 0.05419523 0.105547
000390 e3 cd a2 3d 48 c7 1d 3c 65 57 02 be 2a 21 76 bc
       0.07949426 0.009630032 -0.12728651 -0.015022555
0003a0 87 0f ee 3d 66 f1 df bd 17 3f 3e bd ff d3 a3 bc
       0.11624055 -0.10934715 -0.046446886 -0.019998549
0003b0 11 e7 73 bb 07 06 b3 bc 6f 03 3c bd d8 10 c8 bd
       -0.0037216584 -0.02185346 -0.045901712 -0.09768838
0003c0 bb 0d 1e bd a4 9b 7e bd 43 2b 88 bc 18 82 57 3d
       -0.038587313 -0.06216015 -0.016622191 0.0526143
0003d0 6b c1 e4 bc 53 10 29 3e 5a 70 b5 bd c9 1c 37 be
       -0.02792426 0.16510133 -0.0885932 -0.17882074
0003e0 7f 70 99 3d 0f 95 ae bd ae 04 81 bd f0 28 87 bb
       0.0749216 -0.085245244 -0.06299721 -0.004124753
0003f0 3a ea ec 3c 03 8e 33 bd ba c8 b5 3b 89 d2 0e be
       0.028920282 -0.043836605 0.00554761 -0.139475

sequential_1/dense_3/BiasAdd/ReadVariableOp:0 f4 [128]
000000 43 73 37 3d f9 3d 29 3e 5d 15 34 3e 58 4b f6 3d
       0.044787657 0.16527547 0.17586274 0.120260894
000010 ce 74 d1 bd 8d 12 0c be 02 cf 5b be 3e c7 07 3e
       -0.10227357 -0.13678952 -0.21465686 0.13259599
000020 c2 9e b5 3e 68 19 1a bc 42 b7 6f 3d 88 1b a3 3e
       0.35472685 -0.009405471 0.058524378 0.31856942
000030 b0 ea f7 bd 4a ea 16 3e 11 ed af 3e e6 d0 c4 3c
       -0.1210531 0.14737812 0.34360555 0.024025392
000040 ac dc c2 bd 13 3e ee 3e ab ac 7c 3e 26 50 91 bd
       -0.09514746 0.46531734 0.24675243 -0.07095365
000050 59 39 80 3e c8 9d 37 3e 27 e6 02 3e 6c 62 b5 3e
       0.25043753 0.17931283 0.12783109 0.35426652
000060 f3 45 5c 3e 8a 5d 98 bd 04 45 6e bd 98 67 d8 bd
       0.21511059 -0.07439716 -0.058171287 -0.10566634
000070 66 40 8c 3e ae 73 79 3e fc ff d3 3c 0d d0 38 bd
       0.27392882 0.24360535 0.025878899 -0.045120288
000080 cd f5 92 3e 25 cb a3 3e 66 8f a2 3e f4 b1 84 bb
       0.28703156 0.31990924 0.3175003 -0.004049534
000090 88 74 13 3e 74 32 0d be eb 3f bd 3e fb 81 a2 bd
       0.14399922 -0.13788778 0.36962828 -0.07934948
0000a0 53 ec 14 3e 3e e6 9d 3d 18 e6 a4 3e 39 55 96 bd
       0.14543276 0.07709931 0.32206798 -0.07340474
0000b0 08 95 b0 3e e6 a1 b4 3b 3a 52 a4 3e a3 e3 a4 3e
       0.34488702 0.005512464 0.32093984 0.32204923
0000c0 d0 5e 9a 3d f1 6b 98 3e 9b 6a 95 3e 33 44 df 3b
       0.07537615 0.29769853 0.29182896 0.00681355
0000d0 c2 93 ce bc aa 2a 16 3b 42 4d 7a bc 72 74 b5 bd
       -0.02521694 0.0022913613 -0.015277209 -0.08860101
0000e0 b3 57 3c 3e b8 6f 04 bd 92 5b 63 be f2 f6 0f bd
       0.1839283 -0.032333106 -0.222029 -0.035147615
0000f0 a8 be 92 bd bb 54 fc 3c 79 75 37 be 4b 2f 3c 3e
       -0.07165271 0.030802121 -0.17915906 0.18377416
000100 88 4c a4 bc 48 e6 c4 bc 53 54 c4 3e 32 c8 b5 3e
       -0.020056024 -0.024035588 0.38345584 0.355043
000110 c9 ac 74 be e2 3a 82 3e d0 10 56 3d 3b 48 de 3b
       -0.23894037 0.2543555 0.052262127 0.006783513
000120 66 c5 96 bd 0a bb 3f 3e 81 ab 29 bb 9f 23 16 bd
       -0.073618695 0.18723693 -0.0025889578 -0.036655065
000130 4b 47 73 be 53 ff 34 3e 57 eb a4 3e 23 68 e1 3d
       -0.23757665 0.17675523 0.322108 0.11006191
000140 e4 d3 ec 3c 35 25 c0 3d 26 be aa bd ed a1 14 3e
       0.028909631 0.09382097 -0.08337049 0.14514895
000150 32 cc 0a 3e b9 21 88 3e 7f b7 37 be b0 fa ef 3d
       0.13554457 0.26588228 -0.17941092 0.11717737
000160 cc 76 9e 3e 58 fd 33 bc 48 b2 18 3f a3 49 a9 bd
       0.3095001 -0.010985695 0.59647036 -0.08265998
000170 46 30 c8 bb 9b 43 f1 3e a4 30 81 3e f8 8c 28 3d
       -0.0061092703 0.4712189 0.25232422 0.041150063
000180 73 c8 e8 3e 6a e6 87 bc b9 b3 56 3c 11 4d 8c 3e
       0.4546543 -0.016589362 0.013104373 0.27402547
000190 3f 06 3c 3e c9 5b bc 3d 7d 42 b4 3d d4 90 9b bc
       0.18361758 0.09197194 0.08801744 -0.018989958
0001a0 ba 7c 48 39 1d 05 76 3d 04 f9 2b 3e b5 0d ec bb
       0.0001911995 0.06006347 0.1679421 -0.0072037824
0001b0 11 44 15 3f 86 e0 b5 3e 28 86 03 3e a9 2e c0 bd
       0.58306986 0.3552286 0.12844145 -0.093839
0001c0 c4 19 1d be bd 9c 64 be e1 a2 81 bc 60 f0 af 3e
       -0.1534186 -0.22325416 -0.015824737 0.3436308
0001d0 bf a3 79 3e af e9 1c 3e f0 78 29 bd a8 d4 80 3e
       0.2437887 0.15323518 -0.0413751 0.25162244
0001e0 65 c8 b6 3e 7c 7f a3 3e 1c ab a4 3d ef 0e d6 bc
       0.35699764 0.319332 0.08040449 -0.026130168
0001f0 af bd c1 3c 5f 45 40 be 72 87 3b 3e f2 0e b8 be
       0.023650018 -0.18776463 0.18313387 -0.35948902

sequential_1/conv2d_3/Conv2D/ReadVariableOp:0 f4 [32, 16, 4, 4]
000000 95 5e 9a 3d 35 4f 22 3e cf 75 68 3d 54 b8 9f 3d
       0.07537571 0.15850528 0.056752976 0.0779883
000010 0c b5 85 3d 14 ce e6 3d fa 24 7a 3c b5 b0 2e 3d
       0.065286726 0.11269775 0.015267605 0.04264899
000020 ba 41 70 bd 2c 0f 45 bd 86 7c df bb 35 0a 09 bc
       -0.05865643 -0.048110172 -0.0068202643 -0.00836425
000030 17 97 3a be 68 6c 57 be 55 ff 01 be 9d 34 95 bd
       -0.18221699 -0.21037447 -0.12695058 -0.07285426
000040 93 1d a3 bd 8e be d4 bd 73 cf b4 bd 01 71 f4 bd
       -0.07964625 -0.10387908 -0.0882863 -0.11935616
000050 1b e6 91 bc c8 aa 91 3c f0 1a 55 3d ac 81 a7 3d
       -0.017809918 0.01778163 0.052027643 0.0817903
000060 ec 34 8b 3d bf 00 bf 3d cd 6a b2 3d 74 72 b1 3d
       0.067972034 0.09326314 0.08711777 0.08664408
000070 19 2b 7f 3c ee 36 07 3d fa a7 e4 3a e7 15 a2 bc
       0.01557424 0.03301137 0.001744508 -0.019785834
000080 b2 d3 97 3d 33 ab 49 3d d0 4f 49 3d 16 24 c2 3d
       0.074134246 0.049235534 0.04914838 0.09479539
000090 c3 7d 94 bd a5 11 2d bd c0 d5 7d 3d fe ad f2 bb
       -0.0725055 -0.042253155 0.061971426 -0.0074059954
0000a0 89 01 88 bd 56 e7 e7 39 1d 0a ba 3c 61 cd ee bc
       -0.06640918 0.00044232112 0.0227099 -0.029150667
0000b0 92 34 15 be cb 6f c3 bd 3b de d2 bd 84 fa 5b be
       -0.14570835 -0.09542807 -0.10296293 -0.21482283
0000c0 a4 8f 2e 3e 37 cc 80 3d f9 4c e4 3d 5d 54 37 3e
       0.17046982 0.06288951 0.11147494 0.17903276
0000d0 3c cd 10 3e 16 c3 ad 3d 84 3e b9 3d 90 25 ff 3d
       0.1414079 0.08484475 0.09045127 0.12458336
0000e0 63 96 96 bc 83 a2 89 bc eb ba a9 bd 6e 84 80 bd
       -0.018382257 -0.016801124 -0.08287605 -0.06275259
0000f0 81 ee 0e be fc ec 15 be 95 02 4f be b0 9b 2b be
       -0.1395817 -0.14641184 -0.20215829 -0.16758609
000100 60 21 0e 3e c2 4b cf 3d 69 f7 36 3c 5c 4d 2a 3e
       0.13879919 0.101218715 0.011167386 0.16631073
000110 5f aa 12 3e f9 e3 ca 3d a6 28 2e 3e c3 27 0e 3e
       0.14322804 0.099067636 0.17007694 0.13882355
000120 e0 ce c5 be 36 dc c9 be b1 ea 0d bf 43 15 be be
       -0.38634396 -0.3942582 -0.55436236 -0.37125596
000130 c9 a5 10 bf 50 be 0e bf af cc 45 bf c2 6d ce be
       -0.5650297 -0.55759144 -0.7726545 -0.40318114
000140 4f 36 34 be c5 d8 7f 3b 3d 67 92 bc d7 ea 96 bd
       -0.17598842 0.0039039117 -0.017871493 -0.07369011
000150 5e 64 d8 bd ae 14 5a 3d f6 56 22 bb cc 95 02 3c
       -0.105660185 0.053242378 -0.002477107 0.007970285
000160 1f f3 0d bd 58 c1 5d b9 78 63 eb bd c6 80 2e 3c
       -0.034655686 -0.00021148229 -0.114935815 0.010650819
000170 4d 41 b9 3c ff 2f 00 3e 58 b3 b1 bd 7b 75 b9 3c
       0.022614146 0.12518309 -0.08676785 0.022639027
000180 73 b1 2b bc 3d f8 3f 3c 6f e4 84 bc 2a 61 54 bd
       -0.010479319 0.011716899 -0.016222207 -0.051850475
000190 37 f2 2c 3d ec 08 28 3d b6 db f7 3c 3c 32 1a 3d
       0.04222318 0.041024134 0.030256134 0.037645563
0001a0 e1 88 4a 3d 80 d4 f8 3c af 16 6a 3d ef 3c 47 3d
       0.049446944 0.030374765 0.05715054 0.048642095
0001b0 c3 d3 90 bc d9 e3 af bc 5d 25 da 3c 29 1b 1f bb
       -0.0176791 -0.02147095 0.026629144 -0.0024277663
0001c0 c2 de 86 3c b2 20 51 3d e9 49 75 3b f6 ae dd 3d
       0.016463641 0.05105657 0.0037428087 0.10824387
0001d0 c6 81 6e bd 34 90 65 bd 61 cd 2a bd 63 79 21 bd
       -0.05822923 -0.056045726 -0.04169977 -0.039422404
0001e0 e7 3e 4b bd a6 df 99 bd f9 13 84 bd cf a9 8e bd
       -0.049620535 -0.07513361 -0.06449122 -0.06965982
0001f0 7a 0f a4 3d 84 20 b3 bb 8b f1 03 bd 37 71 8a bc
       0.080107644 -0.0054665226 -0.032212775 -0.016899688
000200 34 1e 0a 3d 9b 5c 26 bd da f2 35 bd a8 4c 8c 3d
       0.03372021 -0.04061566 -0.044421054 0.068505585
000210 d8 bb e6 3d ac 68 c2 3d 05 9d 03 bd 80 b2 06 bd
       0.11266297 0.09492621 -0.032132167 -0.032885075
000220 2b e7 66 bb 64 81 2c bd 9e ed b0 bd 96 96 49 bd
       -0.0035233002 -0.042115584 -0.08639072 -0.049215876
000230 43 cd c2 bc 73 bd 8b 3c c7 6d 66 bd fb 11 f1 3c
       -0.023779517 0.01705811 -0.056257036 0.029427519
000240 f6 9e f4 bd 51 86 5b bd 7d 08 71 bd 33 6c 89 bd
       -0.11944382 -0.05359489 -0.058845986 -0.067100905
000250 d1 6e 5c bc d9 ce 5c 3d 7d 57 10 bc 18 f0 29 3a
       -0.013454155 0.053908203 -0.008809921 0.0006482615
000260 27 a8 f9 3c 90 d3 33 3d d4 23 2e 3d c0 4a 60 3c
       0.03047569 0.043902934 0.042514637 0.013689697
000270 79 fd 7d bc 4c e0 50 3d e1 0d cf 3b 83 0e 8a 3d
       -0.015502327 0.050995156 0.006318793 0.06741049
000280 e3 6a 06 bd f3 b7 94 3d fa b0 31 be 21 c6 43 bd
       -0.03281678 0.07261648 -0.17352667 -0.047796372
000290 3f 55 b5 3d ef 7c 91 3d 9f f3 8b ba 6b b6 a5 bd
       0.0885415 0.07103907 -0.0010677463 -0.08091434
0002a0 b4 19 4c 3d 06 84 df 3d df 96 8b 3d 6c d0 43 3d
       0.0498292 0.10913853 0.06815886 0.04780619
0002b0 a2 e7 b9 3c fb fe cb 3d 7a ba 20 3e 72 fb b4 3d
       0.022693459 0.09960743 0.15696135 0.08837022
0002c0 99 47 c6 bc ba 29 0e bd 5a a4 43 bd e0 78 47 3c
       -0.024204062 -0.034707762 -0.04776416 0.012174815
0002d0 1c d3 56 3d 94 82 cc bc aa 48 8a 3d b5 79 88 bc
       0.052447423 -0.024964608 0.06752141 -0.016659597
0002e0 a9 fc 83 3d 11 83 99 3c 49 5d 42 3d 09 9d 0f bb
       0.064446755 0.018739255 0.047452245 -0.0021913669
0002f0 af a9 ce bd ed e8 46 bd eb c4 bb 3d 1b 92 dd 3d
       -0.10090958 -0.04856198 0.091684185 0.10818883
000300 4b e4 cc 3d 3f 0e 84 3d da 49 af 3c 32 97 39 3e
       0.10004481 0.0644803 0.02139752 0.18124083
000310 8d ec dc bc a7 1f 57 3d ae 64 94 bc fc 4c 53 bc
       -0.026968265 0.05252042 -0.018114414 -0.0128967725
000320 fc c0 1a be 38 b8 85 be b3 d2 4e be c8 23 97 be
       -0.1511268 -0.2611711 -0.20197563 -0.29519486
000330 ea 6c 4f be 27 b3 3e be ba 00 58 be a4 41 a5 be
       -0.20256391 -0.18623029 -0.21094027 -0.32276642
000340 7e 12 e5 3d 83 b3 af 3d b0 75 a9 3d 2e 83 92 3d
       0.11185168 0.08579161 0.082744 0.07153927
000350 ae 4d b9 3c 55 f9 b1 bc 0e f1 a9 3d 97 27 36 3d
       0.022620048 -0.021725336 0.08297931 0.04447135
000360 72 5b a4 be 8d 3f d5 be 0d e9 b5 be bb 02 7a be
       -0.32101017 -0.41650048 -0.35529366 -0.24415104
000370 fa bb ab be 6d 82 20 bf 4f 64 06 bf 9e e0 11 bf
       -0.33541852 -0.62699014 -0.5249681 -0.56983364
000380 da c8 0d be 81 2b 1b be 98 ef 37 be cf 49 35 be
       -0.1384615 -0.15153314 -0.17962492 -0.17703937
000390 14 e6 6f b9 16 05 64 3d 72 27 3b 3c cf e7 16 3d
       -0.00022878527 0.055668913 0.011422979 0.036842164
0003a0 79 02 57 3d 81 0c b7 3d 4f 39 b6 3d 96 94 e0 3d
       0.052492592 0.08937932 0.088976495 0.109658405
0003b0 fb e7 e4 3c 78 8b af 3d b1 5c 45 3d 92 39 a0 bc
       0.027942648 0.085715234 0.0481841 -0.019558702
0003c0 6e 2c 49 3e de 20 1d 3e 17 d6 55 3e a0 f0 76 3e
       0.19645855 0.15344569 0.2088245 0.24115229
0003d0 7c c5 cf 3d a5 76 4d 3d 76 15 b4 3d b3 fb c2 3d
       0.10145089 0.050161976 0.08793156 0.09520664
0003e0 5f 0c 73 bd 89 1f e6 bd af 1e 9c bd 38 f5 97 bd
       -0.05933797 -0.112364836 -0.0762304 -0.07419819
0003f0 8b 07 63 be 51 26 81 be 0a 8e 5c be 1c e0 86 be
       -0.22170846 -0.25224546 -0.21538559 -0.26342857

sequential_1/conv2d_3/BiasAdd/ReadVariableOp:0 f4 [32]
000000 ad 31 48 3b 41 6d fa 3c 79 f3 8b 3e 15 bf 52 3c
       0.0030547187 0.030569674 0.27334192 0.01286294
000010 df ab 07 3e 80 6e c9 3d b4 31 0a 3e db 3b 04 3e
       0.13249157 0.09835529 0.13495523 0.12913458
000020 87 e8 54 3d a1 57 3d bd 03 a0 b8 bd 99 91 00 3e
       0.051979568 -0.046226148 -0.09014895 0.12555541
000030 a6 a4 93 3d 36 c5 0a 3d 5e 86 d2 bd a3 56 9e 3d
       0.072091386 0.03387948 -0.10279535 0.077313684
000040 c5 b0 aa 3d bb 79 85 3d 08 7e 67 3d 78 68 63 3d
       0.08334497 0.06517359 0.056516677 0.05551955
000050 7a a5 24 bc bd 51 44 bd c6 da 58 3b 3e 0a e9 3d
       -0.010049218 -0.047929514 0.0033089384 0.11378907
000060 5a 86 22 3d cb 91 50 3e 6c 35 db 3d fa ee a3 bd
       0.03967891 0.20368116 0.10703549 -0.080045655
000070 d4 8f 55 3d 2d bf 0d 3d d0 81 62 bd 76 9e 1b bd
       0.05213912 0.034606148 -0.05529958 -0.037992917

sequential_1/conv2d_2/Conv2D/ReadVariableOp:0 f4 [16, 3, 4, 4]
000000 86 12 d3 3d 86 a4 06 be f1 53 bd 3a 07 12 97 bd
       0.103062674 -0.13148698 0.0014444572 -0.07376485
000010 26 62 e3 3c 28 22 13 3e c2 b0 8a 3d 4d d0 6a bc
       0.027756762 0.14368498 0.06771995 -0.014331889
000020 22 3e ae 3d 01 64 aa 3a 1d 08 93 3d 33 db bc 3d
       0.08507945 0.0012999774 0.07179282 0.092214964
000030 5e d9 4e 3c fb cf e0 bd c4 2b 60 3d aa 24 48 bd
       0.012625067 -0.10977169 0.05472924 -0.04886309
000040 99 9b 81 ba ce b8 7a 3b a7 cf 0f be cd 91 9a bd
       -0.0009888291 0.0038257125 -0.14044057 -0.075473405
000050 5e 84 fd bc 41 a3 c9 bd 73 9b 03 be 7c 10 4f be
       -0.030946907 -0.09845591 -0.12852268 -0.20221132
000060 50 16 8c 3d e0 3b fe 3d 6f 5a e4 3d d8 b3 d0 bc
       0.06840193 0.12413764 0.11150061 -0.025476381
000070 aa 2a 5b bc 57 81 f9 3d 67 2e 98 bd 02 18 70 bd
       -0.013376871 0.12182873 -0.074307255 -0.058616646
000080 c9 80 17 3e a5 3e 04 3e 53 3d 6e 3d 18 81 c9 3c
       0.14795221 0.12914522 0.058163952 0.02459769
000090 59 ad f3 3d 01 05 31 3e 7e da 20 3e c2 49 ca bd
       0.11898298 0.17287065 0.15708348 -0.098773494
0000a0 8f 7a 32 3e 80 eb 97 bd c2 13 c3 3b ab 05 12 be
       0.17429565 -0.07417965 0.005953283 -0.14259975
0000b0 97 1b 41 3c 59 25 ad 3d ca cb dc 3d dc 04 c8 bd
       0.011786363 0.08454389 0.10781057 -0.09766552
0000c0 ed ca 95 bd 4d a4 22 bc 42 8c cc 3d 3c 67 98 3d
       -0.07314096 -0.009926868 0.099876896 0.074415654
0000d0 12 fc 51 bc 78 c0 f9 3d b0 ea 35 3d 85 bf 2d bd
       -0.012816446 0.121949136 0.04441327 -0.042418975
0000e0 3f c4 ca 3d 79 1c 1b 3e 2b 08 a9 bd dc 4e a4 3d
       0.09900712 0.1514758 -0.08253511 0.08022854
0000f0 ff 02 3a 3d 13 cf 29 3e 36 9c 08 3e 42 a2 c3 3d
       0.045413014 0.16582899 0.1334084 0.095524326
000100 66 75 5e 3d cb 74 d9 3c 1e 9f a5 3d 46 ef ca bb
       0.05431118 0.026544949 0.0808699 -0.0061930744
000110 72 c7 93 bd dd 8e 67 3d 90 46 80 bc a5 10 b8 3d
       -0.072157755 0.05653273 -0.015658647 0.0898755
000120 88 57 86 bd 9f 82 c2 bd 45 70 9e 3d 98 84 30 3d
       -0.06559664 -0.0949757 0.077362575 0.0430952
000130 a2 95 63 bd 79 ca 00 be 20 8d 07 be 14 39 5b 3d
       -0.055562623 -0.12577237 -0.13237429 0.05352123
000140 ed d8 48 bc 08 cb ed 3c 32 68 ea bd df b3 d4 3d
       -0.01225875 0.029027477 -0.11445655 0.1038587
000150 ba 66 fc bd 89 5e b6 bd 19 c7 75 bc 6d be 18 be
       -0.12324281 -0.0890475 -0.015001082 -0.14916392
000160 d8 d1 d6 bc 7f a1 8b bd af f9 aa bd 80 2c 17 3d
       -0.026223108 -0.06817912 -0.083484046 0.036907673
000170 37 40 59 be 51 c6 92 3c e8 0b 4d 3c 37 58 b9 bd
       -0.21215902 0.01791683 0.012515046 -0.09050029
000180 fd e4 08 3d fb 94 64 bd 56 60 70 bd 14 b2 05 3e
       0.033421505 -0.05580614 -0.058685623 0.13056213
000190 aa 6f e0 3d 4d bb 83 3d 7b 02 46 3d 84 f8 90 bd
       0.10958798 0.06432209 0.04834221 -0.070786506
0001a0 16 0a 28 3e 6b 07 8a bd 10 15 ee 3d 36 b9 95 bd
       0.16410097 -0.06739696 0.11625111 -0.07310717
0001b0 65 07 d5 3d a6 f2 8d bd f6 b2 4a bd 26 df ba bd
       0.10401801 -0.06931047 -0.049487077 -0.091245934
0001c0 18 b3 59 bd 20 83 0e be ff b1 ab bd a9 fd 4c be
       -0.053149313 -0.13917208 -0.083835594 -0.20018639
0001d0 72 95 b9 bc 69 5c 45 be e5 23 37 be d6 98 17 3b
       -0.022654269 -0.19273533 -0.17884786 0.0023131869
0001e0 61 67 3d be 0e 45 23 be 53 74 fc bd 77 9a 18 be
       -0.18496467 -0.15944311 -0.123268746 -0.14902674
0001f0 10 90 e0 3c fb f5 09 bd e7 f5 1c be fd 07 1e bd
       0.027412444 -0.03368185 -0.1532818 -0.038581837
000200 d8 30 50 3d b6 c3 38 3d 35 71 0c 3e 61 be bb 3d
       0.05082783 0.04510852 0.1371506 0.09167171
000210 52 2a df 3d 75 4e d8 3d 21 1c 20 3e 0a 14 85 3d
       0.10896744 0.105618395 0.1563573 0.06497963
000220 23 d6 8d bd ac 40 df ba 9a 60 9e 3d dc 79 33 3e
       -0.06925609 -0.0017032824 0.07733269 0.17526954
000230 0b 35 21 3d c7 7d 96 3d ed da 7a 3e 3e 07 00 3e
       0.039357226 0.07348209 0.24497576 0.12502763
000240 8f fc 40 be d3 e4 1e 3b e1 78 e1 3d ce 89 1a bb
       -0.18846343 0.0024245277 0.11009384 -0.0023580673
000250 fb 9e 05 be ce 35 82 be 8f 06 93 bd 52 39 07 bd
       -0.13048927 -0.25431675 -0.07178985 -0.03301365
000260 7f a3 d9 bd ca 9c 11 bd b6 28 db bd 52 53 18 3d
       -0.106268875 -0.035549916 -0.10701124 0.037188835
000270 2d b4 22 be bc 74 98 bd 4b 5a 29 bd 47 37 5f 3d
       -0.15889044 -0.0744414 -0.041345876 0.054496076
000280 45 af 8f bd af 0e be 3d 81 c1 d0 bd 1a 7d c4 3d
       -0.07015852 0.092801444 -0.10193158 0.09594174
000290 cf e3 c4 bc 20 92 dc bc 2c b5 e4 3d 9d 54 9d 3d
       -0.024034409 -0.026925147 0.11167368 0.07682154
0002a0 2e 07 e6 bd 8d 2e 1b bc 34 89 91 3c 62 d8 be 3d
       -0.11231838 -0.009471548 0.017765619 0.093186155
0002b0 78 2b 01 be 16 86 fb bd d2 21 22 bc 30 5d f3 bc
       -0.12614238 -0.12281434 -0.009895759 -0.029707521
0002c0 0e 44 61 3e e9 1e 37 3e 54 88 b2 3d 6a 82 54 bd
       0.21998617 0.17882885 0.08717409 -0.051882185
0002d0 23 0e 93 3d f3 33 5d 3e 0b bd 8e 3d b3 51 8b bc
       0.07180431 0.21601848 0.06969651 -0.01700673
0002e0 4d 9d 04 3e ca 8e 54 3e c6 0f f0 ba 20 3f b7 3d
       0.1295063 0.20757595 -0.0018315248 0.08947587
0002f0 54 b8 c7 3d 68 31 e8 3c 7a c3 8a 3d 6c 04 df bd
       0.09751955 0.028343871 0.067755654 -0.10889515
000300 17 19 54 bd f7 bf f1 bd 14 c0 e2 bd f4 b5 5f bd
       -0.05178174 -0.118041925 -0.11071792 -0.054616883
000310 6c 7e 26 3c 67 d5 29 be f1 7f ca bd d0 35 f8 bd
       0.010161977 -0.16585313 -0.09887684 -0.12119639
000320 44 6d cb bd 60 d0 64 3e c4 15 21 3d 5b 3e 9f 3e
       -0.0993295 0.22345114 0.039327398 0.3110226
000330 38 8a c5 3d 93 45 2a 3d 5d 08 23 bd 91 36 2b 3e
       0.09645504 0.041570257 -0.039802898 0.16720034
000340 ff 68 d2 3d 65 60 6a 3d cf 89 2c be 84 15 ca bd
       0.10273933 0.057220835 -0.16849445 -0.09867385
000350 1b 19 6a be 75 a8 83 bc dc 75 c9 bd c7 aa e0 bd
       -0.2286114 -0.016071538 -0.09836933 -0.10970073
000360 12 fd fb bc 2a 19 65 3c 06 a5 ff 3c 98 3d 5d 3d
       -0.030760322 0.01398305 0.031206619 0.05401382
000370 c1 8b d6 3d 27 f6 ba 3d a3 24 04 3e 88 a1 16 3e
       0.10475875 0.09128981 0.12904601 0.14710057
000380 85 e8 4a 3e af 0a d1 bd 27 d5 a8 3d da cf 67 3d
       0.19815262 -0.10207116 0.082437806 0.056594707
000390 8b 78 63 be b3 5b b1 bc 19 73 40 be 5e 27 00 bd
       -0.22213952 -0.02165017 -0.18793906 -0.031287543
0003a0 58 87 4a be 4f 2b 92 bd 34 4d 0c 3d b3 d8 26 3e
       -0.19778192 -0.07137167 0.034253314 0.16293602
0003b0 8d 98 1e 3e 39 5c d8 3c 44 bc 06 3e c6 e7 2d bd
       0.15487881 0.026411163 0.13157755 -0.042457364
0003c0 8c e4 31 be 89 f7 d1 3c 59 7c 3f 3e 27 ce 46 3e
       -0.1737234 0.02563073 0.18699779 0.19414578
0003d0 0c 15 18 be c2 ee 19 3e 6d 0e 11 3e 5e b1 9c 3e
       -0.14851779 0.15032485 0.14165659 0.3060407
0003e0 1e 7a 04 be b2 41 01 bc ca 0f 73 3e d9 01 41 3e
       -0.12937209 -0.007889198 0.23736492 0.18848361
0003f0 cb 7e 11 be 1f b2 2c be 00 11 ea bc fa 9c 04 be
       -0.14208524 -0.16864823 -0.02857256 -0.12950507

sequential_1/conv2d_2/BiasAdd/ReadVariableOp:0 f4 [16]
000000 91 8e a0 be aa c1 c8 39 90 0d 9c 3d 74 e8 1b bd
       -0.3135877 0.00038291264 0.07619774 -0.03806348
000010 ee a3 6d bd 9c 9c e3 3b f8 7e ba b9 44 dc a6 bb
       -0.058017664 0.0069461595 -0.00035571284 -0.0050921757
000020 db 64 a7 bc ff 05 86 3d 64 55 b6 bc b8 59 92 ba
       -0.020433834 0.065441124 -0.022257514 -0.0011165654
000030 1f ba be bc 96 c9 04 3c 23 44 66 3c bb 92 18 be
       -0.023282109 0.008104702 0.014054331 -0.14899723
