benchmarks/marabou-cifar10/nets/cifar10_small.onnx (onnx, 343619 bytes, 10 tensors)

sequential/dense_2/MatMul/ReadVariableOp:0 f4 [64, 10]
00000000: 314b 5c3e 8818 79bd e8ee c4bd 0c7a 76bd
00000010: 5566 533d 8e6a 29bf da98 95bd ae7d 5e3e
00000020: 9a2d 5e3d dc0d 6a3e 7ab4 1ebd 1d1b b13e
00000030: 8b49 e83d 6069 afbe 14b6 bf3d fb3f 9dbe
00000040: 87a4 2abf 8c07 b7be 4229 3ebd 5c68 5f3e
00000050: d927 1fbe 5537 5c3d 6073 1cbd 874b 2cbf
00000060: 343e 8bbe d785 7ebe 81e5 693e dfbf cbbe
00000070: cc80 3bbe 20ff a73e 37d5 883e b4c3 17be
00000080: 5c1a 483e 54ab fb3d a63c 97be 2938 38bd
00000090: b981 44bd cd2e ad3d e3b8 7b3e 8ce2 803e
000000a0: b924 99bd 60dc d3bb 1b8a 3fbd 265b d9be
000000b0: 3288 7ebd f3e2 dcbe afd1 7b3d 4545 25bd
000000c0: 9ecb 963e 5546 18bf c326 3bbd 5691 aa3e
000000d0: eb9e 763d 421e a8bc 398d f7be 68d5 b9bd
000000e0: 1790 47be f114 06be 9645 463e 7b1e 34be
000000f0: 6036 8abd b056 973e 4f11 f5be c5c6 873e
00000100: 5fe9 aebe ec7f 36be 6a21 1f3e 6356 f7be
00000110: ee28 1a3e e2c5 8a3e 16d6 f3bd 5cfc 08bf
00000120: fc8b 763d 2e2e 0c3d 1b33 1a3e e499 bd3d
00000130: d660 24bf 1a57 053d 7087 a73e 0891 f0be
00000140: f8fa ee3d a971 0abf e0b2 e73d 519d 873e
00000150: 3bda a23e ba86 de3d 03b5 d9be eddf 053e
00000160: 8d4c 983d 881b 90be ddf6 8d3e f2d2 74be
00000170: 7b28 f2bd d3cb 77be 8e8f 84be c0d9 c63d
00000180: 3ab0 febe 6a83 983e 617b 8f3e b8a5 ca3c
00000190: 1aa7 a1be 84fd 2abf c5b8 3bbe d861 b83e
000001a0: a9b8 053e ed43 753e 291d 0f3c 049a dd3d
000001b0: b286 2b3e eaba 4d3e 098e 1a3e ff60 3bbf
000001c0: 3b2a c43d 6002 ec3c 1f73 ae3d cf36 363e
000001d0: 0e58 85bd 1959 4dbe 9a1a a1be 7dbe 12bf
000001e0: c2e0 963e c517 b3be 6a7b 933e 51e9 23be
000001f0: 46ff 4dbe 1148 08be 6a80 cdbc 37f1 91be
00000200: e96f 073e 3285 be3e 48d9 7c3e 5d15 983e
00000210: e240 cabe 37b1 ee3c 6f94 6fbe 6c04 b0bd
00000220: 8e58 a3be 7dc5 003e 558c 86be 78e4 1a3d
00000230: 50e1 1ebe 0761 1b3d 4a80 91be eb78 3c3e
00000240: 42f4 60be 14ca 5a3e dcd6 07bf c794 953e
00000250: c33e c9be 8f75 ac3e 0ae7 833d 8118 2fbe
00000260: fbca 42be de5b 82bd 6e08 303e 4230 0abe
00000270: 918b 0dbf 9c3f 1d3e 49dc a8bd b706 923e
00000280: a70d 41be 05aa 9cbd ad56 4bbb a844 abbe
00000290: 1832 0abe 39a6 46be 6c05 dabe 6343 c83e
000002a0: 8867 703e dd81 913e e4b3 7e3e 5c65 eebb
000002b0: 7096 bd3e 70f2 c4be 6428 66bd 4c1d 303e
000002c0: 55bb 3fbd 6a40 98be 9d82 29be 015d d3bd
000002d0: 0146 163e 000e 12bf d27a 223d 7229 073c
000002e0: b082 1b3e 497a 2f3e 202b 4e3d 5e3d 523e
000002f0: f06b 573d e687 babe f990 24be c4c8 a43d
00000300: 1cff 73be 0ef6 753e 6a07 ffbe 97d9 543e
00000310: 1115 ccbd b1c7 103e 1057 bb3e 73ee 04be
00000320: ed2e 91be 5bd6 c2be b53a 213e c34f c5bd
00000330: 5ac2 803e 339c 8c3e dd5f 9c3e 8098 b63e
00000340: 619e 1fbf d5da ccbe 0931 573e 3fcf aabe
00000350: 98f1 c8be 0771 de3d 80e6 df3e 81ff 36be
00000360: 3f8d 983e 3bda 293d 860f 02be 4a7a cb3d
00000370: 4034 bbbe 5934 86be 5562 053f 7291 233e
00000380: b797 9a3e 8b3b 3fbe 098f 983d 16b4 aabe
00000390: 32df a1be f3f2 a4be 0f1e dfbe 5a24 25be
000003a0: 301f 9ebe df8f 373e 91d1 afbe 8273 a73e
000003b0: 57fa 14be 42f8 c8be 391b cd3e 2afc 813e
000003c0: c024 2c3d afa9 97bd 4b9d 1a3e 9a74 7b3e
000003d0: b9f3 983e b4c6 9d3e 3855 bc3b 712a f3be
000003e0: 0993 15be ba92 10be 4b88 0e3d 9652 09bd
000003f0: 7cfe 8fbd 8640 903e ad13 623e 87f2 ab3c
0.21513058 -0.06081441 -0.0961588 -0.060174987 0.051611263 -0.66178215 -0.07304545 0.2172763
0.054242708 0.2285685 -0.038746335 0.34590998 0.11342152 -0.34260082 0.093609005 -0.30712876
-0.666573 -0.35747945 -0.046426065 0.21817154 -0.15542544 0.053763706 -0.038195968 -0.67302746
-0.27195895 -0.24855743 0.22841455 -0.39794824 -0.18310851 0.32811832 0.2672517 -0.14820749
0.19541305 0.122885376 -0.2953846 -0.044975433 -0.047975276 0.08456192 0.24582247 0.25172842
-0.074777074 -0.0064654797 -0.046762567 -0.42452353 -0.062141605 -0.431419 0.061479267 -0.040349264
0.29452223 -0.5948232 -0.045691263 0.33314008 0.06021015 -0.02052224 -0.48349932 -0.09073907
-0.1948856 -0.13093926 0.19362482 -0.17589752 -0.067486525 0.29558325 -0.47864768 0.26518837
-0.34162423 -0.17822236 0.1554009 -0.48308095 0.15054676 0.27104098 -0.11906068 -0.5351007
0.060192093 0.034223728 0.15058558 0.09257868 -0.6421026 0.03255377 0.32720518 -0.4698565
0.11668962 -0.5407968 0.113134146 0.2648721 0.31807122 0.10865541 -0.42520913 0.13073702
0.07436476 -0.28146005 0.27727404 -0.23908594 -0.11824127 -0.24198847 -0.25890774 0.09709501
-0.49743825 0.2978776 0.28023818 0.024737224 -0.315728 -0.66793084 -0.18332203 0.3601215
0.13058724 0.23951693 0.00873498 0.10820392 0.16750601 0.20090833 0.15093245 -0.7319488
0.09578367 0.028809726 0.08518051 0.17794345 -0.06510936 -0.2005352 -0.31465608 -0.5732191
0.29468352 -0.34979072 0.28805095 -0.16006972 -0.2011691 -0.13308741 -0.025085647 -0.28504345
0.13226284 0.37210995 0.24692261 0.297038 -0.39502627 0.029137237 -0.23396467 -0.085945934
-0.319035 0.12575336 -0.2627894 0.03781554 -0.15515637 0.03793433 -0.2841819 0.18405502
-0.21968177 0.21366149 -0.53062224 0.2921507 -0.39305696 0.3368344 0.064405516 -0.17099191
-0.19022743 -0.063651785 0.17190716 -0.13494971 -0.55291086 0.15356296 -0.08245141 0.28520748
-0.18852864 -0.07649616 -0.0031027005 -0.33450818 -0.13495672 -0.19399346 -0.42582262 0.39113912
0.23476994 0.2841939 0.2487331 -0.0072752666 0.37028837 -0.38466215 -0.056190863 0.17198676
-0.046809513 -0.29736644 -0.16553731 -0.103204735 0.14675142 -0.5705261 0.03966791 0.008249627
0.15186572 0.17136492 0.050334096 0.20531222 0.05259317 -0.36431807 -0.16070928 0.080461055
-0.23827785 0.24019644 -0.49810344 0.20786129 -0.099649556 0.14138676 0.3658986 -0.12981586
-0.28356114 -0.38054165 0.15745051 -0.09634354 0.25148278 0.2746292 0.30541888 0.35663223
-0.6235104 -0.40010706 0.21014799 -0.3336124 -0.3924682 0.10861402 0.43730545 -0.17870905
0.29795262 0.041467886 -0.12701234 0.09935434 -0.365633 -0.26211813 0.5210317 0.15973452
0.30193874 -0.18675058 0.07449157 -0.3334052 -0.31615597 -0.32216606 -0.4357762 -0.16127148
-0.3088317 0.17925976 -0.34339574 0.32705313 -0.14548622 -0.39251906 0.40059832 0.25387698
0.042027235 -0.074054115 0.15099065 0.24556199 0.29873446 0.3081566 0.0057474636 -0.47493318
-0.1460687 -0.14118472 0.034797948 -0.033526026 -0.07030961 0.28174227 0.22077818 0.02098967

sequential/dense_2/BiasAdd/ReadVariableOp:0 f4 [10]
00000000: e2dd 34be 1a4f 313d 150b 26be f8f5 ec3d
00000010: 2916 fb3d e348 5fbd d873 323b 083a 7338
00000020: 101c 333c bdbb b73d
-0.17662767 0.043288328 -0.16215165 0.11570352 0.12260086 -0.05451287 0.0027229693 5.798976e-05
0.010931984 0.08971355

sequential/dense_1/MatMul/ReadVariableOp:0 f4 [128, 64]
00000000: 414e f83c 9b0a 0f3e b279 37bd 02ba d63d
00000010: b593 9c3c 01ec cebe 7cec 8ebd edfd 91bc
00000020: d46c c33d 9538 57be 2796 3c3e a494 0ebd
00000030: d2a3 e5bd 7964 07be 7de1 12be 5bef 60be
00000040: 9a43 61bd edb8 80bd a9e7 10be 78d1 173d
00000050: 659b 9b3b 992c b1bd 7290 6cbc 2879 a93d
00000060: 9826 4bbb 9d78 4f3d 4fad f03d 477e 463d
00000070: fdb7 52bb 620e 37be 8015 e8bc 6234 603e
00000080: 3e18 bf3d 74d8 62bc 2fbf 74be 58d7 2abe
00000090: 7f2a 3239 311f 023e b362 b6be eaa3 453e
000000a0: 892f b9ba aa58 09be 6eb9 1fbe f786 8ebe
000000b0: bd4f e03d 2eb0 81be b6c4 553e 39cd 023e
000000c0: e98b e6bd c337 3c3e f4ba 1fbd 68bc cebe
000000d0: dda3 ff3d 8194 03bf b551 c8bd 361d e1bd
000000e0: 4c72 2c3e 409b e73d d416 903d 92f5 c7be
000000f0: d588 653d 3780 c93d 81e4 483d 620b e4be
00000100: 2b6b ccbd d2a7 9c3d 8eaf 943d b809 a43e
00000110: a446 613d 5ff3 5c3d 36d8 72bc 3f8b 13be
00000120: 84cc 43be 642a 33be ac58 103e ae2f 6bbd
00000130: 9f7c d73d 8cb4 613c fb9f 763c e1d6 8ebe
00000140: c501 4fbd 7bd8 34be afe4 e2bd 2ff4 ba3d
00000150: 0dcc a0bd 6bb5 44be 5016 463d 3db5 aabd
00000160: c5d8 b4bc 434d eebd 305a 113e 0b43 d2ba
00000170: 44c4 a1bd 0b00 7bbc 3e82 22bf 1bff ccbd
00000180: cca5 09bd 31ff 223e 8072 653d be61 863d
00000190: cca1 173e 3c05 b53e 8959 79be ff57 8abd
000001a0: f05e 00bd fb46 a5be cd1c c0bd 5a8c 493e
000001b0: b7a1 d83e cc48 0cbe 50d1 1cbd 3891 e23d
000001c0: a49c 57be 0aa5 02be a2ef 0abd c25c 7abe
000001d0: 07b2 463e 8563 173e f25b c23d dccd d23d
000001e0: a36f f03d 24c2 19bd ad17 d33d baa2 78be
000001f0: 44d7 493c eaa5 67bd d351 7b3d 3523 3ebc
00000200: ed1b 0e3d 1497 4c3c 5fed a0be 7a04 f5bd
00000210: 52ed bebe 2151 4bbd 07cd ebbc 4c6b 51bd
00000220: dc0c f63d e7b9 c03d 393d 19bb 40f7 503d
00000230: db8b d2bc 4686 c43b 1ab7 583e 87bf 9a3d
00000240: 2889 89be e5ae 0fbe 2740 4d3e de35 04be
00000250: 6cb0 483d 141c 2bbc 9ffd babd 591a 15be
00000260: 2875 643e 1136 e03e 898b c13d 7dd1 843b
00000270: 3c86 eebd 927f 99bb 2551 f1bc ab47 653d
00000280: 91fa febd e9e1 51bd 4fa4 403e 1081 c8bd
00000290: c619 e4bd 41f6 ccbd 36fb 0b3d 0b3f 1b3e
000002a0: 6ed0 ddbe a8f9 f3bd 0280 f4bd 4d1f febc
000002b0: 47cf 893d dba8 283e de6c 1abe e56d b93d
000002c0: 664a 863c 49f0 c33d 3bba 583c fec0 4a3e
000002d0: ac45 013e 1282 df3b b4b3 093d c8c7 df3d
000002e0: 9abf 25be f1f3 e13c 6cd3 163e 1a77 083e
000002f0: 7565 243d 9dd2 ccbd f84a a7bd 355c c4bd
00000300: f675 68bd 0983 263e 40e7 b73d 67dc d43c
00000310: 2ba4 34be 10c6 8d3d 75c4 403e 8500 a3be
00000320: 5aff 04bf dc08 59bd 116a 71bd 7bfc 27bf
00000330: 2610 d4bd 651c 80be bd63 bb3c 8202 6c3c
00000340: 5a23 443d 911c fbbd 80de a6be e88e cebd
00000350: d885 90be daa5 c7bc d746 b8be eb49 e73c
00000360: 1b5c 833c 0011 15be a809 83be 505f a4be
00000370: 9247 4b3e 5729 cbbe 597d 73ba 9f6f ff3c
00000380: 15ef a43d 789f 04bf def6 d5be 9100 4d3e
00000390: e90c 203e 01af 903d 8d5e 29bc f596 2fbd
000003a0: 963d 52bc 4d39 4fbe b83f a3bd bf7b d13d
000003b0: be78 18be 458f 3e3d f8a6 6abe 8977 21bc
000003c0: 6181 87be d186 c0be de68 77bd 2f17 91be
000003d0: 2bab bebd 452d 293e dd7d 81bd 9df3 bdbd
000003e0: 3ef4 aebd fe2e b83e a32e a93e 9b97 5bbc
000003f0: 28ca db3d a404 d5be c470 933d 02b4 abbd
0.030310752 0.1396889 -0.044793792 0.10484697 0.019113401 -0.40414432 -0.069786996 -0.017821277
0.09542242 -0.21017678 0.18416654 -0.034809723 -0.11212887 -0.13221921 -0.1434383 -0.21966307
-0.05499611 -0.06285272 -0.14150871 0.037065 0.004748749 -0.086510845 -0.014438735 0.08275062
-0.0030998345 0.050652135 0.11751806 0.04846027 -0.0032153123 -0.1787658 -0.028330564 0.21894982
0.09330796 -0.013845552 -0.23901056 -0.1668371 0.00016991234 0.12707211 -0.35622177 0.1930081
-0.0014128546 -0.13412729 -0.1559808 -0.27837345 0.10952709 -0.25329727 0.2087582 0.12773599
-0.112571545 0.18380646 -0.03899665 -0.40378118 0.12482426 -0.51398474 -0.097812094 -0.109919
0.16840476 0.113089085 0.07035604 -0.39054543 0.056038696 0.09838908 0.049046043 -0.44539934
-0.09981378 0.07649197 0.07260047 0.32038665 0.05499901 0.053943034 -0.0148220565 -0.14408587
-0.19120985 -0.1749664 0.14096326 -0.057418518 0.105218165 0.013775956 0.015052791 -0.27898315
-0.050538797 -0.17660706 -0.11078774 0.091286056 -0.078514196 -0.1920983 0.048361123 -0.0833535
-0.02207602 -0.1163583 0.1419456 -0.0016041709 -0.07898763 -0.015319834 -0.63479984 -0.10009595
-0.03360538 0.1591766 0.0560174 0.065616116 0.14807814 0.35355556 -0.24350561 -0.06755065
-0.03134054 -0.32280716 -0.09380493 0.19682446 0.4231088 -0.13699645 -0.038285553 0.110628545
-0.21055847 -0.1275827 -0.033919938 -0.24449447 0.1940385 0.14784057 0.094901934 0.10293171
0.11740043 -0.037538663 0.1030725 -0.24280825 0.01231939 -0.056554712 0.06135733 -0.011605074
0.0346946 0.012487192 -0.314311 -0.119637445 -0.37290436 -0.049637917 -0.028784288 -0.051127717
0.120141715 0.09410458 -0.0023382439 0.051017046 -0.025701454 0.005997452 0.21163598 0.07556062
-0.26862454 -0.1403156 0.20044003 -0.12911174 0.048996374 -0.010443706 -0.09130406 -0.14560832
0.22310317 0.4379125 0.09450442 0.0040532933 -0.11646697 -0.004684397 -0.029457638 0.05597655
-0.124501355 -0.051240835 0.18812679 -0.09790242 -0.111377284 -0.10007907 0.03417512 0.15160768
-0.43323082 -0.119128525 -0.11938478 -0.031020785 0.06728988 0.16470663 -0.15080592 0.09054164
0.016392898 0.09567315 0.013227995 0.19800183 0.12624234 0.0068209255 0.033618644 0.10926777
-0.16186371 0.02758214 0.14729089 0.13326684 0.04013582 -0.10001109 -0.08168596 -0.095878996
-0.05675312 0.16260923 0.08979654 0.025984002 -0.1764075 0.06922543 0.18824942 -0.31836334
-0.51952136 -0.052986965 -0.058939043 -0.6561963 -0.103546426 -0.25021663 0.022874707 0.014404895
0.047885276 -0.12261308 -0.3259163 -0.10085851 -0.28227115 -0.024371076 -0.35991547 0.028233489
0.01603513 -0.14557266 -0.25593305 -0.32103968 0.1985152 -0.39679977 -0.00092883926 0.031181155
0.08053414 -0.5180583 -0.41789907 0.20019747 0.15629925 0.07064629 -0.010337484 -0.042868573
-0.012832066 -0.20236702 -0.07971138 0.10228681 -0.1488981 0.04652335 -0.22915256 -0.00985516
-0.26465896 -0.37602857 -0.060402744 -0.28338 -0.093099914 0.16521175 -0.06322835 -0.09274981
-0.08542679 0.35973352 0.33043393 -0.013402845 0.107319176 -0.41605103 0.07199243 -0.08383943

sequential/dense_1/BiasAdd/ReadVariableOp:0 f4 [64]
00000000: 7c6e f33e 846e 923e 7a50 f33e 1e80 1a3e
00000010: d2f2 b03e 8d84 c93e 3b4e 1a3f e383 fb3e
00000020: 2296 f53e 2b2e 843e 697c 093f 799e f93e
00000030: 3b1c 9a3e def2 383e d585 e93e 6828 a63e
00000040: a488 973e 0d38 8c3e dde7 b33e 8095 ba3e
00000050: 17ea fa3e f826 083f 3b96 0a3f f512 f73e
00000060: e26b aa3e 0bc2 c03e e352 86bd e576 963e
00000070: d69b 8e3d b844 c73e f4ba e13e b1c1 b73e
00000080: f2f0 0d3f b7ff b83e 3b4d 35ba 5fc9 203f
00000090: f081 ed3e eff7 b03d ac33 793e 2d09 bc3e
000000a0: 61a9 873e b913 8f3e bc1a df3e 533a 003f
000000b0: 9828 a73e 8731 ea3e b975 b33e 6d96 b83e
000000c0: 163d bf3e da4d ca3e 08a7 b73e c7ce 713e
000000d0: 1ac3 8b3e 2e40 3a3e fede 883e 064a 343e
000000e0: f916 d33d b68c 443e a42b 963e 0e78 c83e
000000f0: e97f c83e a7d7 093f 63bb 5f3e 693e 693e
0.4754523 0.28599942 0.47522336 0.15087935 0.34560257 0.3935894 0.6027562 0.4912406
0.47966105 0.25816473 0.5370546 0.48753718 0.30099663 0.18061396 0.45609918 0.32452703
0.29596436 0.27386513 0.35137835 0.36442184 0.4900672 0.5318446 0.54135484 0.4825665
0.33285433 0.37648043 -0.06558778 0.29387584 0.06963317 0.38919616 0.44087946 0.35889962
0.5544578 0.36132595 -0.000691611 0.6280727 0.46388197 0.086410396 0.24336118 0.3672575
0.26496413 0.27944735 0.43575084 0.50088996 0.32648158 0.4574091 0.35050753 0.36052266
0.37351292 0.3951252 0.35869622 0.23614036 0.27297288 0.18188545 0.2673263 0.17606363
0.10307116 0.19194302 0.2933017 0.39154094 0.39160088 0.53844684 0.21848826 0.22777714

sequential/dense/MatMul/ReadVariableOp:0 f4 [576, 128]
00000000: 4f1c 943b dce9 4f3d c1a5 21bd a1e7 5bbc
00000010: d9e4 f73d 8a71 b93c b5be ef3b b8dc 393d
00000020: 001f 493d de6a c2bc daf7 51bb 3467 893d
00000030: f9e3 b0bd 647b 26be 69b9 c3bc 69e6 a33d
00000040: 5c39 f6bd 4f20 1bbd 05eb 87bd 1fc2 4fbd
00000050: 2880 1b3b 3e9a 9d3c ce9e e33c bf7e 033d
00000060: 8ddd b13d 5073 603d 6044 27bc 8613 4f3d
00000070: f77a 1e3d 64ef 1cbd bb32 4e3e fa4f 0dbe
00000080: 5531 3c3d 6ad4 ae3d 5a15 7b3c 1c76 293d
00000090: f380 04bf fe27 b0bb d7a9 0ebf bf24 8a3d
000000a0: bb91 e9bd f7d4 883d 05a2 2cbc e7cb 97bd
000000b0: dcec 7fbd 5a14 cfbd 4b32 8a3d 9d23 0b3d
000000c0: dd2a 9c3d 2bed 22bd 3327 263c 5fb5 a73d
000000d0: 7ff1 5abd 7350 cebd 7b72 debc 216f 593d
000000e0: 1937 17bc 343b 603b 3017 b53d 1f8f 593d
000000f0: 1ad3 aebc a30e 0cbb c64f 543c 7be6 893d
00000100: edb0 9bbc 419c 5fbd c309 90bd c56e 83bc
00000110: 7ba1 753d ff6a 67be 42f5 cd3d 53a0 afbb
00000120: 3424 c4bb cd52 e43b 37c3 873d 1fbc a0bd
00000130: a1d3 893d cd43 163d b278 dfbc fc82 4c3d
00000140: 41ed 14be 0fc4 173c 61f1 0a3d e985 d4bd
00000150: 779d 093e 74ae ad3d a959 233d 8208 7bbb
00000160: 88c9 1d3d 0bb9 063e 4c60 683d 00f1 7f3d
00000170: f77c bf3d 58e9 ca3c 0a9c ca3d a70f cd3c
00000180: 268b c6bb 58d5 e8bd 5cf7 80bd a74b 3b3d
00000190: ba06 c43c ca4b d5bd cc99 07bd 0954 bebd
000001a0: ef15 8f3b 142d 05bf f85d 043e a2ee f9bd
000001b0: ee17 663d 8a5d 443d d5a8 0fbd eec7 7c3c
000001c0: cb5f febd 2e4a c3ba 0cab 37bc 2af8 613d
000001d0: 4081 48bc 5e20 d1bb b051 763d b64b 7f3d
000001e0: dc0f f53d 8fc7 20be 0dc4 d7bd 806d f53d
000001f0: da46 e23c e39c b13c 5b34 913d ed6c 52bc
00000200: 359a b3bd dd4d 81bd 4c52 e2bd 75c1 8a3d
00000210: 688a da3b 86c8 223d 7de0 843c 09f5 22bb
00000220: 3f3a 8d3d 3e82 d0be 401e 2c3d fd57 1ebe
00000230: 2913 953d 0cc2 e23c f405 503d a605 10be
00000240: 1c27 79be 84d5 18bd 21a9 38bd 44de dfbe
00000250: 9fc2 fb3c 1007 063e 5785 683c a4d4 95be
00000260: 410c 133c 43f3 863d 3e0b aa3c 4ce4 14bb
00000270: e153 433d 14d5 b3bd 017d dfbc 9882 773d
00000280: c183 2bbe 994b 563d fcc0 553d 8705 d23d
00000290: 723a 0d3d 16fc 813c 7696 98be bb92 88bd
000002a0: 15e1 3fbe 8943 31be 38af 2a3d 277a 41be
000002b0: 7d8a 83bc ba8f 5c3d 44ee 4e3e 8110 6e3b
000002c0: 163e d2bd f32f 8abe 811b 3dbe 825f 90bc
000002d0: 22e7 9ebc 61d6 9dbe 50bd efbb f4cc afbc
000002e0: 9c7b ab3d b10a 743d be2e c83d 0e65 5fbe
000002f0: be4c 9cbd 288d 653d 9db5 a43d dc4c c53b
00000300: 9741 c73c d678 5f3d 0fdd 16be 8d9e 873d
00000310: 2169 64bd 22cd ee3c d1e7 903d 70d1 33bc
00000320: cf6e b13d 92d0 103d 1032 27bd 6555 0fbe
00000330: 204e d23d e49f febb 3ac0 aa3c d48c a23d
00000340: 0a43 33bc 9568 083e 3796 0c3c bea3 b13d
00000350: bcff fc3c 7c66 c0bd 7105 963b 4542 06bf
00000360: 8b9a ef3d 6526 b9bd cce4 e93d 2b6e a5bd
00000370: 77ac 9c3d 6309 e33c 6548 a33c 137a e53d
00000380: 775f a13c 2b3b 93be 699f 77bd 3310 4dbd
00000390: 151c e1bc 3de5 01be 9500 6f3e 53cc 293d
000003a0: 85cc d5bd 8668 b0bd 7bbe 8a3c c1bd 68be
000003b0: 936d 223d ee5d 813d b854 f73d 4001 213c
000003c0: 4474 063e 26d1 1c3d 4548 0cbe 620c b5bd
000003d0: 584f 6f3c cd7e db3d c487 29be 71a6 02be
000003e0: b5f8 9e3b 559e 39be 328c 133d 24ce c33c
000003f0: e385 f53c 2ee7 873c 6472 07be ddcc 043d
0.004519976 0.050760135 -0.039464716 -0.013421924 0.12104196 0.022637147 0.007316435 0.04537651
0.04910183 -0.023732599 -0.00320386 0.067091376 -0.08637232 -0.16258007 -0.023892121 0.080029316
-0.12022659 -0.03787261 -0.06636623 -0.050722238 0.002372751 0.019238587 0.027785685 0.032103296
0.086848356 0.05479747 -0.010209173 0.05055573 0.038691487 -0.03831424 0.2013654 -0.1380004
0.045945484 0.085366085 0.015324915 0.041372404 -0.5175926 -0.005375861 -0.55727905 0.0674529
-0.11404749 0.06681245 -0.010536675 -0.07411938 -0.062481746 -0.10111304 0.06747874 0.03396951
0.07625363 -0.039776962 0.010141182 0.08188891 -0.053452965 -0.10073938 -0.027154198 0.053084496
-0.009229445 0.0034214975 0.08842313 0.053115007 -0.021340895 -0.002137103 0.012958473 0.06733414
-0.019005263 -0.054592375 -0.07033112 -0.01604403 0.059968453 -0.2259941 0.10056545 -0.0053596883
-0.005985761 0.0069678784 0.06629031 -0.07848381 0.06729818 0.036685754 -0.027279232 0.049929604
-0.1454363 0.009263053 0.033921603 -0.10377104 0.13438974 0.0848054 0.03988043 -0.0038304632
0.038522273 0.13156526 0.05673246 0.062485695 0.09350007 0.02476947 0.09893043 0.025031878
-0.0060590683 -0.11368817 -0.0629718 0.045726445 0.023928989 -0.10414846 -0.033105657 -0.09293372
0.0043666284 -0.5202191 0.12926471 -0.12203719 0.056175165 0.04794077 -0.03507312 0.015428526
-0.12420615 -0.0014899427 -0.011210214 0.05516831 -0.012237847 -0.0063820323 0.060136497 0.062328063
0.119659156 -0.15701126 -0.105354406 0.11983776 0.027621675 0.021681255 0.07090064 -0.012843353
-0.08769647 -0.06313679 -0.11050853 0.0677518 0.0066693313 0.039742015 0.016220326 -0.002486529
0.06895875 -0.40724367 0.042021036 -0.15463252 0.07279045 0.02768042 0.050786927 -0.14064655
-0.24331325 -0.037313 -0.04508317 -0.43724263 0.030732451 0.13088632 0.014191947 -0.29263794
0.0089750895 0.06589367 0.020757314 -0.0022719083 0.047687415 -0.08780876 -0.027281286 0.06042728
-0.16749479 0.05231819 0.052185997 0.102549605 0.034479566 0.015867274 -0.29802293 -0.066686116
-0.18738206 -0.17310919 0.041671008 -0.18894254 -0.016057247 0.053848006 0.20208079 0.0036325755
-0.10265748 -0.26989707 -0.18467523 -0.017623667 -0.019397322 -0.3082762 -0.007316269 -0.021460034
0.08373186 0.05958051 0.0977454 -0.21815893 -0.07631825 0.05604282 0.080424525 0.0060211252
0.024323268 0.054558598 -0.14732765 0.06622038 -0.05576432 0.02915055 0.070754655 -0.010975227
0.08663713 0.03535516 -0.040819228 -0.13997419 0.102688074 -0.0077705253 0.020843614 0.07937017
-0.010941276 0.13321145 0.008580736 0.086738095 0.030883662 -0.09394547 0.0045782854 -0.5244487
0.116993986 -0.09040526 0.11420593 -0.080776535 0.076500826 0.027714437 0.019931981 0.112049244
0.019698841 -0.2875608 -0.06045476 -0.050064277 -0.02747921 -0.12685104 0.23340066 0.041454624
-0.104394 -0.08613686 0.016936531 -0.22728635 0.03965528 0.06316744 0.12076706 0.009826958
0.1313029 0.038285397 -0.13699444 -0.088402525 0.014606319 0.10717545 -0.16555697 -0.12758805
0.0048514255 -0.18126805 0.036022373 0.023902006 0.029971069 0.016589727 -0.1322723 0.032421935

sequential/dense/BiasAdd/ReadVariableOp:0 f4 [128]
00000000: 4855 a83e 0f8e 103e b8fb 513d aaf8 623d
00000010: c7f1 8f3e 7e17 873d 9ff8 163c 7dc9 063e
00000020: d3db 8cbc d9e7 b83e 332a 13be 33e8 e0bd
00000030: 624b 943e e4eb 953e 2bbd 273d 2f8a 763e
00000040: a1f2 853e 16ec d33e 86c9 65bc 3705 b03e
00000050: d7c8 043d 1973 49bd 8373 c33d 91a6 e53e
00000060: e064 d7bc f59a 02be 6afe 583e 8339 d93d
00000070: 6d88 683e f83e 833e 33fd dfbd e89d 3e3e
00000080: c21f e4bd c195 b7bc b17d 2e3e 1efb 06bd
00000090: 92a5 9e3d 2a96 ad3d 6828 6c3e a2a0 a43d
000000a0: 14cd f23e 9a3f da3e e12a f1bd c6bf a93e
000000b0: 680c 9a3e 4381 2c3e 8370 65bd af71 f33e
000000c0: ab26 c43e 4ce4 ac3e de6d 92be 8f93 a93e
000000d0: 598c e43d 5094 033f c2bf 00be 1530 b73d
000000e0: 58f5 c13c 7756 463e 80a2 24be 0880 84bd
000000f0: 3fec 0f3e f065 713d d87f 29be 9751 8f3d
00000100: a61d e23c a845 503d 5a86 5dbe ab15 9e3e
00000110: b083 a03e 2999 953e 6675 9cbd 4320 913e
00000120: 94c8 ac3c 20d4 023e ac1c 963e 6cb5 873d
00000130: ae5d 723d 3d1f 0ebd ba2c ad3e 3859 09be
00000140: fbdc 1f3d 1b05 27be a805 043e ca17 42be
00000150: d489 70be dd0f e43e 69e6 853d 4eb6 cd3e
00000160: 0410 9fbe 4026 423d 860b bc3d 91d2 13be
00000170: 2c3d ba3c e1cd 64be fdbc cf3d 25b2 3ebe
00000180: 32db 153e e377 cb3e ec40 b33d 9acc 1a3e
00000190: c2d0 833e c28e f13e ac94 efbd 21fa 263e
000001a0: f8d5 433e 309d 00be 59c1 2d3e ab5a 103f
000001b0: ee96 a73e a62b 80bd 527b 36be ee53 ad3d
000001c0: 6871 69bd c374 1cbd bab1 a83e 3bb1 a13d
000001d0: 75bd 90bd 2dab 12bd 2b39 763d 1c7f f93e
000001e0: 56c9 b4bb fbdb fa3e 49ca 94bd 4da6 1f3e
000001f0: dad2 4c3d dde9 74bd edec 44be 6f2f f6bb
0.32877564 0.14116691 0.05126545 0.055412926 0.2811415 0.06596278 0.009214549 0.13162799
-0.017194664 0.36114386 -0.14371566 -0.109817885 0.28963763 0.29281533 0.04095189 0.2407615
0.26161674 0.41391057 -0.014025098 0.3437898 0.0324181 -0.04918203 0.095435165 0.44853643
-0.026293218 -0.12754424 0.21190801 0.106066726 0.22708292 0.2563398 -0.10936966 0.18614924
-0.1113887 -0.022410275 0.17040135 -0.032954328 0.07746424 0.08475907 0.23062289 0.08038451
0.47422087 0.4262665 -0.117757566 0.33154124 0.3008759 0.16846184 -0.056015503 0.4754767
0.3831075 0.33767927 -0.28599447 0.3312039 0.11159582 0.5139818 -0.1257315 0.08944718
0.02367656 0.19368921 -0.16077614 -0.064697325 0.14054964 0.058935106 -0.16552675 0.06997984
0.027602028 0.05084768 -0.21633282 0.30875906 0.3135047 0.29218414 -0.076395795 0.28344926
0.021091737 0.12776232 0.2931875 0.066264 0.05917137 -0.03469776 0.33823186 -0.1341294
0.039029103 -0.16310541 0.12892783 -0.18954387 -0.23490077 0.44543353 0.06538088 0.4017815
-0.31066906 0.04739976 0.091818854 -0.14435793 0.022734247 -0.22344162 0.101434685 -0.18622644
0.14634398 0.39739904 0.08752617 0.15117112 0.25745207 0.47179228 -0.11698279 0.16306354
0.19124591 -0.12559962 0.16968288 0.5638835 0.32732338 -0.06258325 -0.1782048 0.08463274
-0.05699292 -0.03819729 0.32948095 0.07895132 -0.07067386 -0.035807777 0.060113113 0.4872979
-0.005517165 0.48995957 -0.07265145 0.15590782 0.05000577 -0.059793342 -0.19231005 -0.0075129787

sequential/conv2d_1/Conv2D/ReadVariableOp:0 f4 [16, 8, 4, 4]
00000000: 32b6 543c d0bf 9f3d 9713 243d e16d d3bb
00000010: dae8 6ebc 6dfe 00bc e039 623d e1fb d93c
00000020: 4b93 70bc c636 8d3d ea7b 4e3d 2c29 353d
00000030: e9b9 a93d 3e8f 8a3d 82c0 963d 298f 303c
00000040: e8b3 0c3d b0e0 1c3e 6e4c 8c3d 62e6 7f3d
00000050: 906e 46bc c4b3 873d f3d2 cd3c be4f 6a3d
00000060: 6696 38bd 520a 2dbc 6e2e 14bc 9b68 0f3d
00000070: 3e54 7f3d 6223 06b8 b212 1c3d a765 a73d
00000080: 55fa 91be b1b2 2fbc ec72 ba3c 2206 8d3c
00000090: 0623 b0bd b23b bfbd 7ccb 8bbd 0e61 15bd
000000a0: a636 b2bd 4994 b8bd a5be 96bd 58dd 5ebd
000000b0: c86d 00bd ce50 193b f1da 743b ea4c fdbc
000000c0: b944 803c e3ae 023c 85c9 703c 20ec 833d
000000d0: 8d6e c23c 540f 4abd 98a9 ffbc 42b8 a4bc
000000e0: 21ab 28bc 3921 91bd 2bad 0dbd 170f 8f3d
000000f0: 4c6d 743d f99f 803b db4f 0cbc f32e 44bb
00000100: da37 0ebf f71d 69bf c1cb 01bf aa42 f9bd
00000110: b6ee 1abf e0d4 61bf cdde 47bf 0f0d fbbd
00000120: 2213 c5be ecf3 13bf a732 c1be d93c debd
00000130: 2b06 8c3b 2202 21be bddf bdbd b3d6 603c
00000140: 3614 bd3d cb07 663c 6cdf 6bbd b712 6ebd
00000150: 5c66 843d 5e0e c0bb a05b 6bbd 9d69 75bd
00000160: ad00 553c c648 e53b 7db8 55bb 9c64 5cbc
00000170: 2c14 663d 0c97 9bbb 7c1f 513d a31b ac3d
00000180: 5f31 14bf 4705 2ebf 9eba 14bf 7be3 59be
00000190: 2df5 46bf 8f52 8abf c846 5cbf ca92 d2be
000001a0: ed0a 1dbf 1b42 8dbf aab5 8abf bc50 f4be
000001b0: 01bf adbe 230e 1bbf 1169 e1be 65f2 30be
000001c0: 437a f93c a038 e53d 4f7d 9c3d 6af5 8b3d
000001d0: 0ac0 1a3d e4e8 7d3d b6de 183d ac7a 2b3d
000001e0: a0a5 0abd 8b8f 7a3c 3ff5 243d ec37 ee3d
000001f0: 8a3f 953d 1872 873d 3e9f 903d 0eb6 173c
00000200: 0683 febd 9839 29bd 2836 d9bd a315 18be
00000210: bf13 1ebd 61b4 a63c 113c 6c3d 708a 14bd
00000220: bd3f 783d 9ab6 b33d 4bdd 5e3d c639 933c
00000230: 9597 123d ede4 a03d f4ec da3c 05cb 7e3d
00000240: a3f9 223c 83d1 eabc 5cf3 4bbd 45e4 25bc
00000250: 65ba 493d 8c4b d53c f2c5 353c cd17 9e3d
00000260: d960 af3d b0c2 d03c 633a 993d b6e4 4b3d
00000270: fa9d d0bd 8788 6abd 6fb2 40bd 2bf1 acbc
00000280: df2d b3bd 2662 e9bd 9d33 21be 2a34 29bd
00000290: c612 22be 0f74 80be 09d5 bbbe d3ad d7bd
000002a0: d252 81be 51d1 d6be 0cef bebe 88fa 52be
000002b0: 86c3 f6bd dcda 7fbe b26a 96be b0c9 3ebe
000002c0: 72e9 12bf 316c d5be 03e4 bcbe 1210 d7be
000002d0: bf06 9a3c 2273 163e 66bd b93d ea8f 4e3d
000002e0: 5377 043e 7387 493e 070e 283e 0cbc 4a3e
000002f0: 28c8 c03d b75e 7b3d ed5f a93d df8e 8e3d
00000300: 037e f03d de9b 983d fe04 0e3d 140f c03d
00000310: f801 2c3e 9035 073e f977 b13d ce5e 633d
00000320: 801d 6e3e 6f3b 4c3e a688 ca3d af06 0e3e
00000330: b2f2 fe3d d007 da3d 2efa bd3d 38cf c53d
00000340: 2841 113e afba c83d 0ebc a83d 5235 d03d
00000350: b81b ae3d dd6e d73d 27d6 9c3d d82d c53d
00000360: 5722 6abd b46e 71bd b12e 90bd 301a 32bd
00000370: 8033 15be 89bc dfbd d201 a4bd f061 99bd
00000380: 89a5 103e 8c04 193e 6adf 263e a1b2 363e
00000390: 1c6f 0c3e acbd 0a3e f22b 213e 0f75 203e
000003a0: 1eba 953d 65dc 103c 0917 a83d c724 bc3d
000003b0: 81cc 62be f5e3 9fbe 0c89 96be 613d 7fbe
000003c0: daf5 2ebb 2821 59bd 8f10 e5bc c35a 87bd
000003d0: f35c 84bd 2b78 1fbe 9577 03be b842 adbd
000003e0: b89c 62bd 0651 2ebe 6797 07be 50e2 02be
000003f0: 9ccc 3f3d 4796 ddbd 7429 c0bd 47a7 a1bd
0.012982892 0.07800257 0.040057745 -0.0064523076 -0.014581883 -0.00787316 0.055230975 0.026609363
-0.014683555 0.06895213 0.050411142 0.044228718 0.08287413 0.067656025 0.07360937 0.01077632
0.03435126 0.15320086 0.06850515 0.06247557 -0.012111321 0.066260844 0.025125002 0.057204954
-0.045065306 -0.010561543 -0.009044273 0.03501187 0.0623362 -3.1981042e-05 0.038103767 0.081736855
-0.285113 -0.010723756 0.022759877 0.017214838 -0.0860043 -0.09337558 -0.06825921 -0.03646951
-0.087018296 -0.09012658 -0.07360581 -0.05441031 -0.031354696 0.002339411 0.0037361945 -0.030920465
0.01565777 0.007976267 0.0146964835 0.06441522 0.023734355 -0.049331024 -0.031208798 -0.020107392
-0.010294707 -0.07086415 -0.034588974 0.069853 0.059674546 0.00392532 -0.008563961 -0.002993521
-0.5555397 -0.9106135 -0.5070153 -0.12170918 -0.60520494 -0.88215446 -0.7807434 -0.1225835
-0.3849116 -0.5779407 -0.37733957 -0.108514495 0.004273196 -0.1572347 -0.0927119 0.013723063
0.092323706 0.014039944 -0.05758612 -0.058123317 0.06464836 -0.0058610877 -0.057460427 -0.059915174
0.013000649 0.0069972007 -0.0032611184 -0.0134517215 0.05617158 -0.004748231 0.051055416 0.08403709
-0.57887834 -0.679768 -0.58097255 -0.21278183 -0.7771786 -1.0806445 -0.86045504 -0.41127616
-0.61344796 -1.1035799 -1.083669 -0.47717845 -0.33934787 -0.60568446 -0.44025472 -0.17279966
0.030453807 0.11192441 0.07641088 0.068339184 0.0377808 0.06198968 0.03732177 0.041865036
-0.03384936 0.015293012 0.040272947 0.1163176 0.0728751 0.066135585 0.07061623 0.009259714
-0.124273345 -0.04131469 -0.106060326 -0.14852004 -0.03859305 0.020349683 0.05767447 -0.036264837
0.06060766 0.08775063 0.05441026 0.017971884 0.03578909 0.07856164 0.026724316 0.062205333
0.009947213 -0.028664356 -0.049792632 -0.0101252245 0.049250025 0.026037 0.011094557 0.077193834
0.08563394 0.02548346 0.074818395 0.049778663 -0.10186382 -0.05725911 -0.047045168 -0.021111092
-0.087489836 -0.113956735 -0.15742345 -0.041309513 -0.15827474 -0.25088546 -0.3668597 -0.10531201
-0.252585 -0.4195657 -0.37291753 -0.20603383 -0.12049012 -0.24985832 -0.29378277 -0.18631625
-0.5738746 -0.41684106 -0.3689271 -0.42004448 0.018802045 0.14692357 0.09069328 0.050430216
0.12936144 0.19680576 0.16411601 0.19798297 0.09413177 0.061369624 0.082702495 0.06960844
0.11742785 0.07451604 0.03467273 0.09377876 0.16797626 0.13204026 0.08665461 0.055510335
0.23253441 0.19944547 0.09889345 0.13869737 0.12448634 0.10646021 0.092762336 0.096586645
0.14185011 0.09801232 0.082389936 0.1016642 0.08501381 0.10519192 0.07658034 0.096278846
-0.057161655 -0.058943465 -0.07040156 -0.043482006 -0.14570427 -0.10924632 -0.0800816 -0.07489383
0.14125647 0.14943141 0.16296163 0.17841579 0.1371426 0.13548917 0.1573942 0.15669654
0.0731089 0.008841609 0.082075186 0.09186702 -0.22148325 -0.31228605 -0.29401433 -0.24925758
-0.0026696832 -0.053010136 -0.027961997 -0.06609108 -0.06463041 -0.15573184 -0.12838586 -0.08459991
-0.05532524 -0.17023095 -0.13241349 -0.12781644 0.04682599 -0.10819679 -0.093829066 -0.07893234

sequential/conv2d_1/BiasAdd/ReadVariableOp:0 f4 [16]
00000000: eaa5 0b3e cd90 1c3d 3444 223e b8c1 2039
00000010: 536b ae3d 0a2a 98bd 3caa 963e 4dc1 e03c
00000020: c1b8 583c 9703 133d 09f5 743c 3dde 39be
00000030: 9a4f 4ebe 62c3 a63d 0da4 b43c a778 c83c
0.1363751 0.03822403 0.1584633 0.00015330955 0.08516564 -0.07429893 0.29426754 0.027435923
0.0132276425 0.035892095 0.014950999 -0.18151183 -0.20147553 0.08142735 0.022050882 0.024471594

sequential/conv2d/Conv2D/ReadVariableOp:0 f4 [8, 3, 4, 4]
00000000: b49e 123d 6f0c 9e3d 225f 2bbe 47ac f2bd
00000010: e771 393e 864c 80bd 700d e53d 623f 53bd
00000020: 7f48 163c 2957 003d 335a 2eba c28a 05be
00000030: 87e4 3a3e 5d2d 863d c8a5 0fbe c7b8 003e
00000040: 074c e03c 3a2a e13a c7a0 353e 0549 12be
00000050: a41f a5bd de1f 483e 0555 4b3e 51b7 143e
00000060: e949 c83d c863 633c 9478 a83d 6d8b 573e
00000070: bd8e 253e 580a 393e a391 4f3d dead 453c
00000080: 29a6 233d abde ff3d e34e 64be 8900 143e
00000090: 56e6 0dbe a5f8 1bbe e0a4 d6bd d207 37be
000000a0: cdbd 03be 0421 a2bd 7d72 f9bd 3b67 a8bd
000000b0: a1a0 dbbd 3db4 e9bd 0275 d7bd c842 36be
000000c0: b80b 553e 5cce ecbd f5c8 f4bd 84ba 4cbe
000000d0: e1c8 be3d 2da1 453e 7486 90bd b6c9 99bd
000000e0: 19c0 c8bc ec33 36bd 77f8 c83d 00e8 b43d
000000f0: f9b2 823e 6480 c2bc 033a 583e f43e 0abd
00000100: d6ab cdbd 484e 2f3c 6bd9 6b3d 1976 c0bc
00000110: bcd4 9fbd 589e 013e c3d5 4ebc 1098 18be
00000120: dbb3 fe3d ae2e c8bd 5b2a edbd 6f2b 6fbe
00000130: 2e97 7ebd 0b0f 26bd 53fe 8fbd fcfc 81be
00000140: 9e07 e83c 283e 253d 2dfd 71bd 1f08 c23c
00000150: 66ae edbc d1f6 c83d 5848 1d3d f273 29bc
00000160: cace 41bd 3fe4 793e 20d4 1b3e d489 303d
00000170: ec36 133e 0821 2f3e d940 673d e577 d93d
00000180: b707 54bc 98dd 70ba 8536 a7bd ff27 173e
00000190: 46a7 bb3c 8474 563d eb61 04be 4096 9ebd
000001a0: 4ce8 003d 2a28 ebbd 8966 e3bd 7f93 693e
000001b0: c0c5 583e a55d 2ebe 6abe cdbd acaa 1c3e
000001c0: 9178 093e 39ca 163b c65d a63d d472 d0bc
000001d0: c42f 4d3e 96ee 1c3e 99d6 a6be fe3e 19bd
000001e0: 392a 943e 10df 52be 374a 80be c2d8 f2bc
000001f0: 3135 9fbc 858d 89bd 10cf 21be 7cb4 373e
00000200: 89b0 82bb a4d6 ed3d 98f4 b8bd c636 2ebe
00000210: 132a 333e 5c97 6f3d 4eb9 04be 7461 213e
00000220: dd47 823e e06a 00bd 9b38 9abe fadb cf3d
00000230: 0f4a 843d 0ccb 5ebe 0c33 36be 02b3 2a3e
00000240: e1e2 af3b 794f 8e3b 2bd1 18bd ea7c 71be
00000250: 4518 65bd 2e49 b9bb 7b3e 433d 10aa c6bc
00000260: 31b4 363e 2fb0 5d3e e93c 5c3e 377b 713e
00000270: 67fd 653e fc5f 643e 4868 463e 94c9 033e
00000280: 645f 3f39 cfa3 bd3d 25fb 5abd 8b8d 143e
00000290: 91e7 7bbd 6a69 c03d a96d 97bd 205f 52bd
000002a0: 1646 3fbe 958c 80be dc9f a2bd 4e79 45bc
000002b0: 83bb 96be 1742 fcbc df2d 48be af67 35be
000002c0: 2319 203b e7d0 c9bd ff0b ac3d 6a25 1f3e
000002d0: fc2b a53d 5812 04be 36f6 e13d 7ff3 03bb
000002e0: 1891 fb3d e525 a1bd 8070 d7bd 527a 0bbe
000002f0: 9189 1f3d 20e2 54be 340b 05be 5ba8 94bd
00000300: c6ee 913e fbcc d53d 4b10 403e 73ab cebd
00000310: 8068 a23c ac6c 673e 347a 46bd 0e6c 3c3e
00000320: 4be9 81be 3c6f 7ebe 610e e4bd ae53 32be
00000330: 7eb0 64bc bbcc 3cbe 5efa 863d 4dab 1d3d
00000340: 5014 6ebd 82c5 353d 7d57 93bd 24d0 3e3e
00000350: 84c9 373e 9489 eb3d 7546 ad3d 53b0 723d
00000360: a565 123d 3478 183c 774e 0a3d 50b8 be3c
00000370: 33eb 2fbe 40f5 73be 48b8 50be 1405 0abe
00000380: ae51 513c 441e e03b a949 03bd 66ca b93d
00000390: 6976 f03b f407 2fbc a5e9 3d3e 05b3 203c
000003a0: 15ae 86bd 701e a03d 0b77 26be 7c09 b8bc
000003b0: 3345 8e3d eb2f b53d 4145 dbbd ea7f 83bd
000003c0: abaa 323d 525e 4cbe 9122 623d df12 a33b
000003d0: 9156 8dbe e788 37be 1745 cebd 5e2d f43c
000003e0: 833f bbbd d2e0 64be ba86 8abe 15a5 41be
000003f0: 9b53 84bd 8f53 46be e23d 85bd eb40 013c
0.035795882 0.07717215 -0.16735509 -0.118492655 0.18109857 -0.06264596 0.111842036 -0.05157412
0.009172558 0.031333122 -0.0006651014 -0.13041213 0.18251239 0.06551621 -0.14028084 0.12570487
0.027380003 0.0017178722 0.17737113 -0.14285667 -0.080626756 0.19543406 0.19856651 0.14523055
0.09779722 0.01387877 0.082261235 0.2104928 0.16167732 0.18070352 0.050676 0.012065379
0.039953385 0.124936424 -0.22295718 0.14453329 -0.13857397 -0.15231569 -0.10480666 -0.17874077
-0.12865372 -0.079164535 -0.1218004 -0.08222815 -0.10723997 -0.11411331 -0.10520364 -0.17798913
0.20805252 -0.115627974 -0.11952392 -0.19993025 0.09315658 0.19299765 -0.07056895 -0.075091764
-0.024505662 -0.04448311 0.09813016 0.08833313 0.2552717 -0.023742862 0.2111588 -0.033751443
-0.10042541 0.010699816 0.057580393 -0.023493813 -0.07804248 0.1265806 -0.012624207 -0.14901757
0.124366485 -0.097745284 -0.11580344 -0.23356412 -0.062155895 -0.04054169 -0.0703093 -0.25388324
0.028323945 0.04034248 -0.059079338 0.023685513 -0.029013824 0.098127015 0.03839907 -0.010342585
-0.04731635 0.24403475 0.15217638 0.043100193 0.1437642 0.17102444 0.056458328 0.10618571
-0.0129412925 -0.00091882935 -0.08164696 0.14761351 0.02290691 0.05235721 -0.12927978 -0.07743502
0.031471536 -0.1148227 -0.111035414 0.22810172 0.21169186 -0.1702791 -0.10046084 0.15299481
0.13424899 0.0023008718 0.081233546 -0.02544538 0.20037752 0.15325388 -0.325856 -0.03741359
0.28938463 -0.20592904 -0.2505662 -0.029644374 -0.019434543 -0.06716446 -0.15801644 0.17939943
-0.00398833 0.11613205 -0.090310276 -0.17013082 0.17496519 0.058493957 -0.12961313 0.15759832
0.25445452 -0.031351924 -0.30121312 0.10149379 0.06459438 -0.21757144 -0.1779291 0.16669849
0.0053676222 0.00434297 -0.037308853 -0.23582807 -0.05593135 -0.0056544757 0.047667008 -0.024251014
0.17842175 0.2164924 0.2150761 0.23582159 0.22459947 0.2230224 0.19375718 0.12869865
0.00018250715 0.0925976 -0.053462166 0.1450712 -0.061500136 0.09395106 -0.07393963 -0.05136025
-0.1867908 -0.25107256 -0.07940647 -0.012052847 -0.29439935 -0.030793233 -0.19548748 -0.17715333
0.0024429045 -0.09854298 0.084007256 0.15541616 0.0806503 -0.12897623 0.11033289 -0.0020134149
0.12283534 -0.07868556 -0.105195045 -0.1362088 0.038949553 -0.20789385 -0.12992555 -0.07258674
0.28502482 0.104394875 0.18756215 -0.10091295 0.01982522 0.22600049 -0.048456386 0.18400595
-0.253733 -0.2484712 -0.11135555 -0.17414734 -0.013958095 -0.18437473 0.065907225 0.038493443
-0.05812484 0.04437781 -0.071944214 0.18634087 0.17947966 0.1150085 0.08460704 0.059250187
0.035741467 0.009306002 0.033766236 0.023281246 -0.17179565 -0.23824024 -0.20382798 -0.134785
0.012775822 0.0068395454 -0.03205267 0.090718076 0.0073383343 -0.0106830485 0.1854616 0.009808307
-0.06576172 0.078183055 -0.16256349 -0.02246546 0.069467925 0.0884703 -0.107065685 -0.06420882
0.043619793 -0.19957855 0.055208746 0.004976615 -0.27605107 -0.17923318 -0.100717716 0.029806789
-0.09142973 -0.22351387 -0.27055913 -0.1891063 -0.06461259 -0.19367813 -0.06505944 0.007889013

sequential/conv2d/BiasAdd/ReadVariableOp:0 f4 [8]
00000000: 305c adbc c929 07be 996e bbbb 9118 133b
00000010: e7ce 37bd 173d 28bd f2fe 14bc 900f 12bb
-0.021162122 -0.13199534 -0.0057199714 0.0022445063 -0.04487505 -0.041073885 -0.009093987 -0.0022287108
